conv_Autoencoder_anomaly_adam_lr0001.pt (torch_old, 40601 bytes, 13 tensors)

conv1.weight f4 [32, 1, 3, 3]
00000000: 083a 12be 73a4 aabe 912a 763d efaa f4bd
00000010: 3073 1f3e ff36 84be a922 7dbd 3199 89be
00000020: 1550 613e 5d51 f3bd bd17 c13e 139b 253e
00000030: a781 9f3e 6382 013f c1a4 163e 61d8 ac3e
00000040: 4c70 b43c 0345 41bc 71db 46be e160 e53e
00000050: 6fbd 18be 22e2 6e3e 13da f93e 8bac 3fbe
00000060: 57b3 963e 7d21 903d 50f9 363e dcc6 283e
00000070: 0103 1a3e 4016 4f3e 83b1 c13e 52f3 a13e
00000080: 56ad 143e ae3e 1f3e 9fa2 003f b516 7e3e
00000090: c64a ed3e 0b66 a8be 6665 2dbf e2d5 c23e
000000a0: a8d3 613c 3f2e eebe 2447 c23e 759c 07be
000000b0: 20e3 7f3e 96ee f0be 87af 8b3e 8f39 eb3e
000000c0: 3efd 39be 1a2a aabd 3e2a 063f 73c5 093d
000000d0: 5fa2 483e 9c71 473e 3390 b7be 45cd 50be
000000e0: 5eda 69be 023a 70be cc23 943e 641f 69bd
000000f0: bc0a e53d 5586 7ebe 5a08 31be e1a3 8d3e
00000100: d736 423e 1259 99be 0c80 f43e c46a acbd
00000110: 76eb e7be 880d ee3e d7c2 48be 6a6b 22bf
00000120: de5e f0bc 3fdf 413d 730a 22bf eac8 193f
00000130: c817 663e 86ee cebe 91f8 ae3e 75d7 9cbd
00000140: 52e4 2cbf a365 b9bd c5e0 aebd 9661 b2be
00000150: f2b5 473e 0fd2 d13d f423 5ebc e97d f53e
00000160: 249b 9b3e d69b 2ebe 5271 853d e569 85be
00000170: 31d2 8dbe 82da 203c e903 003e 0659 a1be
00000180: efcd efbb 73e9 fabd d887 e33d 6b1f 05be
00000190: fb45 d03e 01e3 5c3e 5dca bc3e dfba 01be
000001a0: f206 28bf 6bf8 e33e be61 ce3d a947 26bf
000001b0: bc43 823d dd0b 89bd aec2 23bd 090a 0ebf
000001c0: 461e 90be bcb6 bcbe dca7 e63c 8a08 b33e
000001d0: fbc6 1cbe 59dc 2abe b3a5 8e3e 01a3 c63c
000001e0: b6d3 61be 758d bd3e b176 26be 25e2 543e
000001f0: c9bd 033f 767d 0a3e ee69 17bf 9295 443b
00000200: c7bf 1f3e f8ae 03bf 83fa 163d bbc7 153f
00000210: eb18 d4be b522 95be 5683 8f3e 7bca 003e
00000220: 5e7e 753e 2385 dc3d 2228 bebd 1283 613f
00000230: 6ef1 9c3c 4d07 36be bf7e ef3e 8d78 d3be
00000240: aea2 973e ecfb 5ebe ec71 bcbe 1503 aabe
00000250: 2b36 adbe 4471 11be ec98 a13e 41ae 36bd
00000260: d8b0 4a3e 4854 b23e 80eb 4bbe 1ad4 24be
00000270: 810a 91be 1888 94be 6ae8 78bd 376c 923d
00000280: 02f5 8c3c 7454 903e 397d 833e d03d c1be
00000290: e9f8 893e cea9 e73e 152c b3be 0717 8f3e
000002a0: ed23 e63e ace6 17be 3c82 ca3e e89e 8b3e
000002b0: 975f 8d3e 32c5 e8be 7ba6 cd3d 06f9 5c3e
000002c0: 8f78 aebe 9087 ad3d c66f c63e 74f2 a5be
000002d0: 6f22 a4be c7e0 20bd 3673 25be b669 41be
000002e0: 332e e83d 6b90 57be 7f15 94be aae4 08be
000002f0: 31ad 99be da36 ec3e 2612 ef3e 1943 0cbf
00000300: 78f2 24be cd7c abbe 000c 8b3e ccc7 ba3d
00000310: 6b8a 66bf 5cae 10bd e03b 013f 3f58 46be
00000320: 62ca 11bf a387 1b3f 9e94 c5be 0728 56be
00000330: 0d80 ccbd 5725 e6be a8be 89bf 1efe ae3e
00000340: ca04 8b3e cae9 76bd 5909 3b3e 7294 873e
00000350: f703 48be b612 9e3e d315 873e 4eae 0e3e
00000360: ffc5 6dbf eef7 a7be 3516 1a3e 7cee 6cbf
00000370: 6a0d 47bf 94b8 033e 8d95 24bf f4a8 d6be
00000380: 6d5d 1d3f d0e6 d13c 0435 89be a80d 04be
00000390: dc43 a1be dab2 1f3e 64c0 8ebd 4036 c9bd
000003a0: 0050 113d 109f eebd 952f 1dbf e282 11bf
000003b0: f1d8 18be 53f4 0ebf ffde 3abd f945 e53e
000003c0: 1b4a 93be 2865 583e 2df5 973e 8eb2 58bf
000003d0: 98f2 a6be 2017 f0be cef2 6fbd c8af 92bd
000003e0: 2eae 9a3d 3ed0 12bf 5dcc d33d b6ab 2d3f
000003f0: 6246 d8be 2558 8fbc 38ba 423d 93a0 f7be
-0.1427995 -0.3332859 0.06009919 -0.119466655 0.15571284 -0.2582321 -0.061800633 -0.26874688
0.22003205 -0.11880753 0.37713423 0.16172437 0.31153604 0.5058958 0.14711286 0.33758834
0.022026204 -0.011796239 -0.19419648 0.44800475 -0.14916013 0.2332845 0.4879919 -0.18718164
0.294337 0.070376374 0.17868543 0.16482109 0.15040208 0.20223331 0.37830743 0.3163095
0.14519247 0.15551254 0.5024814 0.2481335 0.4634611 -0.32890353 -0.67732847 0.38053805
0.013783373 -0.46519658 0.379449 -0.13243277 0.24988985 -0.47057027 0.27282354 0.4594235
-0.1816301 -0.083088115 0.52408206 0.033635568 0.1959319 0.19476932 -0.35852203 -0.20390804
-0.22837207 -0.23459628 0.2893356 -0.056914702 0.11183688 -0.24855931 -0.17288342 0.27664092
0.18966232 -0.29950768 0.47753942 -0.084188014 -0.4529683 0.464947 -0.19605576 -0.6344515
-0.029342111 0.047332045 -0.63297194 0.60072196 0.2247001 -0.40416354 0.34174016 -0.07658283
-0.6753589 -0.09052589 -0.08538965 -0.34840077 0.19503 0.102451436 -0.013558377 0.47947624
0.303918 -0.17051634 0.06515755 -0.26057354 -0.27699426 0.009817721 0.12501492 -0.31513232
-0.0073182504 -0.12251558 0.111098945 -0.13000266 0.4067839 0.2157097 0.3687314 -0.12668942
-0.656356 0.44525465 0.100772366 -0.64953095 0.063605756 -0.06691716 -0.039980583 -0.5548406
-0.28148097 -0.36858165 0.028156213 0.34967452 -0.1531028 -0.16685618 0.27860793 0.024247648
-0.22053418 0.37021986 -0.16256215 0.20789392 0.51461464 0.13524422 -0.5914601 0.0029996377
0.15600501 -0.51438856 0.03686 0.5850789 -0.4142526 -0.29128042 0.2802989 0.1257724
0.23973987 0.10767581 -0.092849985 0.8809062 0.019158091 -0.17776223 0.46776387 -0.4130291
0.29616302 -0.21775788 -0.36805665 -0.33205476 -0.3383039 -0.14203364 0.31561983 -0.044599775
0.19794023 0.34829926 -0.19914055 -0.16096535 -0.28328326 -0.2901008 -0.060768522 0.071495466
0.017206673 0.28189433 0.25681475 -0.37742472 0.26947716 0.45246738 -0.3499457 0.27947256
0.44949284 -0.14834088 0.39552486 0.27269673 0.27611992 -0.45462948 0.10041519 0.2157937
-0.34076354 0.08473122 0.3875715 -0.3241154 -0.3205752 -0.039276864 -0.1615723 -0.18887982
0.11336937 -0.21051185 -0.2892265 -0.13368478 -0.30014947 0.46135598 0.46693534 -0.5478988
-0.1610812 -0.33493653 0.27157593 0.091201395 -0.9005496 -0.035322532 0.50481987 -0.193696
-0.56949437 0.6075384 -0.38589948 -0.20913707 -0.09985361 -0.44950363 -1.0761309 0.3417825
0.2715209 -0.060281552 0.18265285 0.26480442 -0.19532762 0.3087365 0.26383838 0.1393368
-0.92880243 -0.32806343 0.15047534 -0.925514 -0.77754843 0.1286338 -0.64290696 -0.41925776
0.6147068 0.025622755 -0.2679826 -0.12895834 -0.31497085 0.1559557 -0.06970289 -0.098248005
0.035476685 -0.116514325 -0.6140073 -0.56840336 -0.14926507 -0.5584156 -0.045622822 0.44779947
-0.28767475 0.21132338 0.29679242 -0.8464745 -0.3260696 -0.46892643 -0.058581166 -0.07162434
0.075527534 -0.57349 0.103417136 0.67840135 -0.42241198 -0.017498085 0.047540873 -0.48364696

conv1.bias f4 [32]
00000000: d485 9f3e 3497 28bd eb95 c2bb 5d5e 06bd
00000010: bdfd 32bb d2de 963a 03a9 e43e 4284 52bb
00000020: 3a05 b4ba e22e 093e 95bc 4dbe 34e2 e43c
00000030: a55a e23e c190 c13a be3c f4bc 4814 2cbd
00000040: e70c 9e3e 2fb0 873e d10d 1bbb e757 67b9
00000050: 0224 ea3e c9ce 483e 4ab3 9a3c 0a3e 28bd
00000060: 37e1 32ba 5304 0fbe 9c80 7b39 5b0a 283b
00000070: c018 353e a9e0 75bb 3558 d53e eb23 a13b
0.3115679 -0.041159824 -0.005938282 -0.032804836 -0.0027311884 0.0011510497 0.44660196 -0.0032122289
-0.0013734468 0.1339679 -0.2009147 0.027939893 0.4420978 0.0014767871 -0.02981412 -0.04201153
0.3086922 0.26501605 -0.0023659358 -0.00022062623 0.45730597 0.19610132 0.01888432 -0.04107479
-0.0006823721 -0.13966493 0.00023985136 0.0025640938 0.17685223 -0.003751794 0.4166886 0.004917612

conv2.weight f4 [16, 32, 3, 3]
00000000: 1164 273e 9879 203e bd83 113e 5a62 653e
00000010: 82a4 813e 4a35 5a3e 7575 323e de99 713e
00000020: 0104 843e 39ce 2bbe 5382 63bd 4ff5 3bbe
00000030: f677 eebe b218 3bbe 071b 3cbe 27be dbbc
00000040: 91e0 acbd 2b9a 26be 66c7 6fbe 4928 b3bc
00000050: bf79 91bd ec99 d6be 12d1 e9be ae93 40be
00000060: 05c8 70bd 4950 48bd b289 36be 7617 d9bd
00000070: b13e f0bc 577b a4bd 5776 b1be 541a 25be
00000080: 1768 c2bd 5db6 03be ed56 19be d906 d5bd
00000090: 882e 0c3e 4773 9f3e 6c8f 473e c608 c9bc
000000a0: 11f0 0bbe 67ce 63be c74f c53c 9afb 093d
000000b0: d655 99bb f743 553e 107a 613d 6181 f2bd
000000c0: 1391 9abe 99eb d0bd 45d4 3cbd 1f9e 5a3d
000000d0: 4024 fbbd e7dd babb dac5 713e 2bee 663e
000000e0: ebd1 2e3e 5c0c 913e 7c48 473e e44e 8c3e
000000f0: b995 563e 89c4 593e 881d 573e 81fe 0fbd
00000100: da73 9c3e 895e 7cbc 8092 76be 3016 2ebe
00000110: 66f6 5abe 7132 adbd 5896 6a3e c540 343e
00000120: b6ee 80be b39a e0bc b3f6 1c3d 27f6 dabe
00000130: 15e2 cebe 3265 70be d59a 7bbe 0de7 d63d
00000140: 191b 903d d76b 6d3e 912c 013e e4d0 2e3e
00000150: f544 c63d ad2b 0f3e 8042 3d3e 9c01 563e
00000160: 0f0b 403e d4b7 d73d 37af 00bd 1e78 653b
00000170: 11de a33d ab9d 7f3d 2713 8d3c ded3 4cbd
00000180: df99 813d d1aa 55bd 4a8c 2d3d 38a3 54bd
00000190: 3009 3dbe 9524 56bd 0d5c acbe caa2 e8be
000001a0: b512 3bbe 2669 93bd 9b76 e23d 41f1 283d
000001b0: f009 393e b78e 293e f3e3 833e e3dd 763e
000001c0: 2972 8d3e 7018 863e 03ae 573e aeda 393e
000001d0: cb12 9a3e 61a9 20be 8574 13bc dadd 73bd
000001e0: 9f77 f1be a1fe ecbd 49e5 d8bd 2317 cb3d
000001f0: ccf8 0fbe bc76 22bd 7f80 d93d 484f 8b3c
00000200: d4a7 b63c d23f bcbe 8c0b c9bd 2c4d 5e3d
00000210: 243e 3ebe 1935 1ebe cfec ff3c 1ff2 e63d
00000220: beb0 073d b542 703d 0dfa 6bbd ee66 36be
00000230: 507c 00be 8589 dbbc 9ccf 643d 1be2 933d
00000240: 5522 fa3d b2f2 133e a650 163e 867e 0b3e
00000250: 069c cd3d 9d04 f63d 42d9 383e 42d4 223e
00000260: c437 363e 10e4 ef3d 4897 2f3e 6d70 3f3e
00000270: b2a8 123e 7180 203e fc4a 2c3e 0fad 603e
00000280: b733 583e aa29 563e 21bb d439 9fd9 0c3b
00000290: 687c d0bd 03ee 82be 4301 c1bc 1334 f5bd
000002a0: ef4f c0bd ad4b 1ebe 4c1f 843c c9e5 babd
000002b0: edc4 a23e 4eab 803e 9deb 88be c371 b8be
000002c0: 0f68 92bd ea2d 31be 3907 59be 60cf 69bc
000002d0: afca 2f3e 61cc 4b3e c65a 623e 2f94 933e
000002e0: 6488 633e 0472 603e c7fb 4f3e ed4d 923e
000002f0: de19 963e 6f1a 233e 4a4d 373d 142e 803c
00000300: be41 2b3c c9bc a63d bd83 cfbb 3998 b93d
00000310: 049b a23d 5cc6 833e 14fa 303e 4fb0 693e
00000320: 096d 163e c46f d2bc 78bf a6bd 341c 65be
00000330: 654f 89be 2916 02be a397 f03c bfb5 d3bd
00000340: 915d 7f3d 9669 94bd 66b1 b8be aab4 a2be
00000350: 2f49 25be f58f 20be e6c4 3bbd 136e 16be
00000360: e6e9 223e 84ae e13d 5925 08bd 120a b8bd
00000370: 4193 853d 239a 1ebe ff44 6c3e c292 82be
00000380: c58a cd3c 9629 d73c 73f7 113d bbd4 60bd
00000390: cdcf 43bd a62b 04bd 8ce3 4cbd 89ce 4a3d
000003a0: c135 323d 8cb1 63bc e967 82be 3a1f 36be
000003b0: 5e7a 10be 41c7 dfbd 9c88 86be c964 e8bc
000003c0: d02d 8b3e 9559 cfbd b130 ab3d d8d9 ad3c
000003d0: 0791 a8be 2b55 04bc 6756 e03a 1a8b 36be
000003e0: 64ca e7bc 7f9b bc3e 58f2 07be 28bb 743e
000003f0: b2e0 0e3e ec71 003e d70a 073e 6e97 293e
0.16346766 0.15671384 0.1421041 0.224008 0.25320822 0.2130939 0.17427619 0.23593852
0.25784305 -0.16777886 -0.05554421 -0.18355297 -0.46575898 -0.1827114 -0.18369685 -0.02682407
-0.0844127 -0.16269748 -0.23415908 -0.021869795 -0.07103299 -0.41914308 -0.4566732 -0.18806335
-0.058784503 -0.04890469 -0.17825964 -0.10600178 -0.029326769 -0.08031338 -0.346606 -0.16123325
-0.0949251 -0.12862535 -0.14974566 -0.10401697 0.13689625 0.31142637 0.19488305 -0.024540316
-0.13665797 -0.22246705 0.024085892 0.03368721 -0.004679422 0.20826708 0.05504805 -0.11841083
-0.30188808 -0.10201187 -0.046100874 0.053373452 -0.122627735 -0.0057027224 0.2361063 0.22551791
0.17072265 0.28329742 0.19461244 0.2740394 0.20955552 0.21266378 0.21007359 -0.035154823
0.30557138 -0.015403398 -0.24079323 -0.17000651 -0.21383056 -0.084568866 0.22908914 0.17602833
-0.25182122 -0.027417516 0.03832121 -0.42765924 -0.40406862 -0.23476103 -0.24570782 0.10493288
0.070364185 0.23185669 0.12614657 0.17071873 0.09681121 0.13981505 0.18482399 0.20899051
0.18754219 0.10533109 -0.031417098 0.0035014222 0.0800134 0.062406223 0.017221047 -0.05000674
0.06328177 -0.052164856 0.04237012 -0.05191347 -0.18460536 -0.05228098 -0.3366398 -0.45436698
-0.18268855 -0.0719779 0.110577784 0.041245703 0.18070197 0.16558348 0.2575985 0.2410808
0.2762616 0.2619052 0.21062474 0.18149826 0.30092463 -0.15689613 -0.008999948 -0.059537746
-0.47161576 -0.11572004 -0.10590608 0.09916522 -0.14059752 -0.039664015 0.10620212 0.017005578
0.022296824 -0.3676744 -0.098166555 0.054272816 -0.18578392 -0.15449943 0.031240849 0.1127665
0.03312754 0.058657367 -0.057611514 -0.17812702 -0.12547421 -0.026798973 0.055862054 0.072208606
0.122135796 0.1444805 0.14679202 0.13622484 0.10039525 0.12012599 0.18051627 0.15901282
0.1779471 0.11713421 0.17147553 0.18695231 0.14322165 0.15673997 0.1682548 0.21941017
0.21113478 0.20914331 0.00040575213 0.0021492017 -0.101799786 -0.25572214 -0.023560172 -0.11972823
-0.09390246 -0.15458556 0.016128205 -0.09125859 0.31790867 0.25130695 -0.2674226 -0.36024293
-0.07148754 -0.17302671 -0.21194161 -0.014270633 0.17167161 0.19902183 0.2210494 0.28823993
0.22219998 0.21918494 0.20310889 0.28575078 0.2931661 0.15928052 0.044751443 0.015646972
0.010452686 0.08141477 -0.006332843 0.09062237 0.07939723 0.25737274 0.17282897 0.22821163
0.14690031 -0.02568806 -0.081419885 -0.2237404 -0.26818386 -0.12703766 0.029369181 -0.103374
0.06234509 -0.072467014 -0.36072844 -0.3177846 -0.16141199 -0.15679915 -0.045842074 -0.14690427
0.15909538 0.11019614 -0.033238743 -0.08986296 0.06522227 -0.15488486 0.23073195 -0.25502592
0.025090585 0.026264947 0.035636377 -0.054890376 -0.047805596 -0.03226819 -0.050021693 0.049513374
0.043508295 -0.013897311 -0.25469902 -0.1778535 -0.1410918 -0.109266765 -0.262761 -0.02836837
0.2718339 -0.10124508 0.083588965 0.02122204 -0.32923147 -0.008076946 0.0017115594 -0.178265
-0.02829475 0.36837384 -0.1327604 0.2389952 0.13952902 0.12543458 0.13187729 0.16561672

conv2.bias f4 [16]
00000000: dba3 713e 2506 023d cac2 c63b 3e23 103e
00000010: 01c2 1d3e 93d6 2d3d 206a ca3d e683 ed3d
00000020: 1986 933c 7303 293e d99d 7ebb ebf6 97ba
00000030: 0582 003e 96b0 e03d 5e22 853d 3f43 63bd
0.23597662 0.03174414 0.006065701 0.14075944 0.15406038 0.042440962 0.09883523 0.11597423
0.018008279 0.16505222 -0.0038851409 -0.0011593973 0.12549599 0.10971181 0.06500696 -0.055484053

conv3.weight f4 [8, 16, 3, 3]
00000000: ad47 8e3d e1f1 0d3e 9c0c 493e 35bd b2bb
00000010: bbe6 183e 539a 483d d0b4 fd3d 89ce 143d
00000020: eb55 653e 759a 973d c0fa d43d 70d8 843d
00000030: aebd bbbc 1a99 0c3e dd1a 57be 79b8 bc3b
00000040: a55f 983d 0244 44be bdba e33d ef7d 8e3c
00000050: 9ae6 f43d f02f d43d 9ab7 97bd 19ac 813d
00000060: d78e 96bd f8b4 5bbd a7af 37be 3c40 fcbc
00000070: 9900 083e 1189 7c3d 238f 4f3d efc8 593e
00000080: 100e 3a3d f1a9 d43d 3270 213e 0f3f f33d
00000090: 97ac b53d 5b6d 283e 8164 973d 71b1 0e3e
000000a0: f127 713c 7b5f be3d c959 c43d 0dfd 833d
000000b0: 5ab5 493e 71b8 3d3d ea1c a73b 0aa6 523d
000000c0: 167e 373e e61e 78bd 7f8e 1a3c 137d 323e
000000d0: b055 a13d c69e be3d 56bd 83bd b403 ffbd
000000e0: ba67 7d3d 1c4c 393e edb9 883d 0cdb 54bd
000000f0: aab6 95bd 9db9 5e3e dc94 7a3e e194 9b3d
00000100: 1051 a4bd 838d 2c3d e513 c23d e399 033e
00000110: 8f7f 5a3d 1c16 a73c 1c29 e4bb 8a0d 073e
00000120: 05e3 3cbd 4398 0c3c b908 39bd 7bc6 2abd
00000130: d1a4 5bbe dd64 a9bc 3dcb d3bc 2b03 58be
00000140: 78a9 30bd b0e3 5c3e 05ee 94bd 02e2 783c
00000150: 4f4b 173e a28c 6abe 57fd 6a3c 0413 b73c
00000160: 6591 2abe c28b f83d c2d1 f73d 4ac9 913a
00000170: ce7e 493d 9a41 063e 9058 69bc 9679 2bbd
00000180: 2c1c d23c 215f 00be 9ba5 06be f0f2 bf3d
00000190: 4cf8 1c3e 7f3c 973c 2213 7f3d 2632 dcbd
000001a0: 165d 3ebd fd2d 8fbd 142e 9fbd c207 2cbd
000001b0: 895b 093e 7a55 e83d 976f e23d 93d4 213e
000001c0: 312e 2ebd 388c f13c dcb1 003e 9f89 1c3d
000001d0: 0d59 b23e ee57 6a3e 9bd8 a83d 6ce4 a03d
000001e0: 2344 e5bc 46d8 4b3e 6d69 13bb 1e34 233e
000001f0: 3274 813d 32dd c83d 719d e73c 1fa8 e0bb
00000200: ecf2 7fbc 2ebe 2b3e 1543 28bd 3159 92bd
00000210: 0296 613e 6680 03bd ddda 4abe 7009 5cbd
00000220: e730 dabb fb00 073c 19ba 1a3d a27b 553d
00000230: 7905 1b3d 7461 08bd 75a3 5abd 03f7 83bd
00000240: 5943 803c b934 04bb 0b44 abbd 8de6 853d
00000250: a208 99bd cb0d a5bc 23c6 a1bd ba07 bcbd
00000260: 7b8d a8bd 1309 773d 0caf 4f3d b948 ca3c
00000270: 0b4f a23c ba0a a33c b95a a6bd 49a2 f33b
00000280: ffbf 683d eaf7 22bd 7ef6 2cbd 7d96 57bd
00000290: 6d7c 90bd 0f9d 4f3d 5936 7e3d 40d3 b2bd
000002a0: 03ea 9dbc 68ad 0c3d 55ba 54bd bc97 623c
000002b0: d9ad 57bc 15f1 1cbd e6d5 86bc 1eae c8bc
000002c0: 75cf e13c a09e 78bd 8687 253d d8a9 853d
000002d0: 051a 53bd 4773 7b3d d48e efbc b4ce d13a
000002e0: c85d 28bd 46fc e1bc 5098 8bbd cbeb 1c3d
000002f0: 234a d2bb bd0b 4cbc ee40 aa3c 047b 003d
00000300: a052 03bd bb81 9ebc 3ae3 9abd 0212 413d
00000310: 6018 183c 89a9 acbd b52a c0bd 4c11 513d
00000320: 700d a83c e1da 933c 24fc b53c 90eb a1bd
00000330: 1516 2a3d 1cc2 4bbd 1f16 313d 41b7 2fbd
00000340: 6faa 5dbd d66f af3c e232 46bd dd77 24bd
00000350: 2451 93bc 788b 09bd a051 92bd 3876 2cbd
00000360: bd84 bd3c 7603 a1bd d8f3 97bd f8e6 0b3c
00000370: 1afb b1bc 81aa 5abd d968 193d 8a4a abbc
00000380: 12a1 a03d 7f3b 833c 52f5 7f3d fb09 073d
00000390: fb2b 0ebd b0eb 87bd ebfc 2ebd eff1 4dbc
000003a0: 9b61 e6bb d50a aabd 23f6 103d b272 81bd
000003b0: a7e0 babd a2d0 083d 0bf0 91bd 83cd 313d
000003c0: bf92 99bc 1994 35bd 82a5 cbbc cf07 973d
000003d0: 5f6c 1d3c b719 c03b 7ffe b6bd 69cf 6c3d
000003e0: b0e5 35bd f6e7 803d 5bc1 05bd b076 14bd
000003f0: 4fab 413d c5a6 6cbc 17b6 bd3c f496 413c
0.06947265 0.138618 0.19633716 -0.005454684 0.14931767 0.0489753 0.12388003 0.03632978
0.22396056 0.07402507 0.10399389 0.06486595 -0.022917595 0.13730279 -0.21006341 0.0057592955
0.07440118 -0.19166568 0.11119602 0.017394034 0.11958046 0.10360706 -0.07408066 0.06331653
-0.07351463 -0.053639382 -0.179381 -0.030792348 0.13281478 0.061654154 0.050673615 0.21268056
0.045423567 0.10383976 0.15765455 0.11877262 0.088708095 0.16447966 0.073922165 0.13934876
0.014718995 0.09295555 0.09587438 0.0644475 0.19698086 0.046318475 0.0050998824 0.05142788
0.17919192 -0.060576342 0.009433388 0.17430525 0.07877672 0.093076274 -0.06432597 -0.12451878
0.0618665 0.1809544 0.066760875 -0.051966712 -0.07310231 0.21750493 0.24470848 0.07596756
-0.08023274 0.042127144 0.09476451 0.12851672 0.053344306 0.020396285 -0.0069629084 0.13188758
-0.04611494 0.008581224 -0.045174334 -0.041693192 -0.21449591 -0.020677978 -0.025853748 -0.21094958
-0.043130368 0.21571231 -0.07271961 0.015190603 0.14774822 -0.2290521 0.0143426275 0.022347935
-0.16657026 0.12136032 0.12100555 0.0011122611 0.049193196 0.13110963 -0.014242306 -0.041864
0.025648199 -0.12536289 -0.13149111 0.093725085 0.15329093 0.018461464 0.062274106 -0.107517526
-0.046475492 -0.069911934 -0.077724606 -0.041999586 0.13413824 0.11344428 0.1105644 0.15803747
-0.04252452 0.029485807 0.12567848 0.038217183 0.34833565 0.22885105 0.08244439 0.07856068
-0.027986592 0.1990672 -0.0022493259 0.1593785 0.063209906 0.09807815 0.028273316 -0.006855979
-0.015621882 0.16771767 -0.0410796 -0.07145918 0.2202988 -0.032104872 -0.19810052 -0.053719938
-0.0066586616 0.00823998 0.037775133 0.05211986 0.037847016 -0.033296064 -0.05337854 -0.06443598
0.015657114 -0.0020173027 -0.083625875 0.06538115 -0.0747235 -0.020148179 -0.0789912 -0.09181161
-0.0823011 0.06031139 0.050704047 0.02469288 0.019813081 0.019902576 -0.08122773 0.0074351174
0.056823727 -0.03978721 -0.04222726 -0.05263375 -0.07054982 0.050686892 0.06206355 -0.08731699
-0.019276625 0.03434506 -0.051935513 0.013830122 -0.013164007 -0.03831585 -0.016459417 -0.024497088
0.027564744 -0.06069815 0.04041245 0.06526536 -0.051538486 0.061389234 -0.02924291 0.0016007037
-0.04110506 -0.027586114 -0.06816161 0.038310807 -0.006417529 -0.0124539705 0.020782914 0.031367317
-0.03206122 -0.01934897 -0.07562871 0.047136314 0.009283155 -0.08430774 -0.09383146 0.051041886
0.02051422 0.018048706 0.022214957 -0.07906258 0.041524965 -0.049745664 0.043233987 -0.042899374
-0.054117616 0.021415632 -0.04838837 -0.040153373 -0.017983027 -0.033580273 -0.07144475 -0.04210493
0.023134584 -0.07861988 -0.074195564 0.008538954 -0.02172618 -0.05338526 0.037453506 -0.020909566
0.07843222 0.01601958 0.062489815 0.032968502 -0.03470991 -0.06636751 -0.04272167 -0.0125698885
-0.0070306784 -0.08302847 0.035390984 -0.063207045 -0.0912488 0.033402093 -0.07125863 0.043408882
-0.018746732 -0.04433069 -0.024859194 0.07374536 0.009608357 0.0058624404 -0.0893526 0.05781499
-0.0444085 0.06294243 -0.0326551 -0.036246 0.047282513 -0.014444058 0.023158116 0.011815775

conv3.bias f4 [8]
00000000: 1749 483d df20 e9bc 444c 05bd ec3e 1b3c
00000010: d712 9d3d 6ff2 6c3d a735 273c 38c2 b3bd
0.04889783 -0.028458057 -0.032543436 0.009475451 0.07669609 0.05784839 0.010205663 -0.08777279

t_conv1.weight f4 [8, 8, 3, 3]
00000000: 3d31 483d 86b4 20be ae10 0c3e 4047 b33c
00000010: 1e98 83bd aaf0 26bd 9a01 fa3c b114 403e
00000020: f978 c6bc a30e 8cbd 7c2b 103e b169 4f3e
00000030: a16c 6a3c 06a2 54bd 0b89 33bd d3ef 0b3e
00000040: 18be 583e f56d a63d c650 a4bd 1a89 173e
00000050: 07e9 163e f763 a73d aa4b ee3d 2aa8 bebd
00000060: 6337 5cbd a865 6c3e 87e8 0f3e bd23 fbbc
00000070: aa6b 3abd 5027 35be 06b3 25bc 9e61 9abd
00000080: 13bc f63d 24b5 acbc 8019 933c ae24 6a3e
00000090: 797a ccbd e809 bbbd c1bf 7b3d ecf7 02bc
000000a0: f3f2 ab3c 95ce e33c d7d8 16be 21af 833d
000000b0: 86e5 d6bc 82c8 553e e35b ac3d ae06 fe3b
000000c0: b117 54bc 2608 133e 5d93 503e 1e22 423d
000000d0: 1ee9 04bd 20c3 65bd 3a70 8e3e a627 5e3e
000000e0: 3605 d0bd 74bd 023e 015c 553e cdbb 003e
000000f0: ba24 2cbc 7604 13be c5d8 723e 7190 493d
00000100: 1ccd ff3d 4495 16bd 2f37 813d 3bcc 00be
00000110: 128d 8fbc b92c b7bc efe7 0f3e 1706 183e
00000120: b1b2 763d fa6d 1dbd fc9c 6fbb 0800 6c3d
00000130: 6af1 3d3d c795 e63d 8a73 cf3d 3bad c8bd
00000140: 09be 97bd dc93 2ebd 8598 603d 87d7 70bd
00000150: 0d37 983d ac12 98bc 0c18 953c 1630 b9bd
00000160: f743 ccbd ac99 40bd 00c9 253b 3c2e f03d
00000170: c061 4f3d bfb2 9dbd 4228 c9bd dbc5 aabd
00000180: 156a c03d 9679 893d a911 bebd 052c 2fbd
00000190: de4d af3d 3a4c c83d e40e 92bc 50a1 32bc
000001a0: 1141 c73d fb6a ba3d 468f 8c3d 3cb4 75bb
000001b0: 54a1 d53c 6d79 c53d 6ce0 90bc 186c b2bc
000001c0: 8da5 943d 962b 47bd 8896 54bd 32e9 55bd
000001d0: cf47 8d3d 9394 c3bd 55b9 9d3c a67b ad3b
000001e0: 0102 9f3d 47ac d5bd 3060 2bbd 68e5 f03d
000001f0: a997 0f3d 3ecf d0bd a0d9 23bb b0fe c53b
00000200: 4e23 643d 1cb3 aabd 0088 e5bb 2065 c73d
00000210: 3a81 a9bd 6991 d83d 7a79 eabd f5ff 9f3d
00000220: f20a 40bc 9a7a 32bd c945 22bd 20e3 b93b
00000230: db39 863d 069d 1c3d 47a6 9cbc 016f bc3d
00000240: ce28 1f3d 5168 c73d 8c80 7e3d 6869 6e3c
00000250: 5a9d 323d f53b 933d 4673 a9bd d173 423d
00000260: f98d a33d 8a47 bdbd 6049 9cbb bdc2 253b
00000270: 66f4 163d d8eb 79bc 0389 cb3d 9213 b2bd
00000280: fff8 68bd 91c1 a63d ffe4 d1bd 575f 043d
00000290: 4c11 d9bd fa12 cc3d f7fd 8a3c 9bea 373d
000002a0: a4bb 523d 365d 5e3a df71 e1bd 65d8 d1bc
000002b0: 0024 bc39 97ec f43c 875d fd3c 8744 8e3d
000002c0: 5457 043d 9b63 a03d 0bb4 8d3d 0a49 98bd
000002d0: 22e2 31bc 9a14 333d 4820 713d 68b2 e73c
000002e0: b6e6 c1bd 2088 dabd c7d0 c8bd 363a 2a3d
000002f0: 1799 f23b a862 adbd 10f1 36bc da1d 8fbb
00000300: 3934 903d 61d7 33bd b3a6 8abd 66a9 b7bd
00000310: 85a1 bcbd d892 92bd aa17 b1bd 9a2d 3e3d
00000320: 7fcc 893d 7459 35bd a40a da3c 408f fdbb
00000330: 8fbc 2b3d 00a5 96bb db72 403d c83c bfbc
00000340: 9a8a 4dbd a81d aabd 0098 e3bd 5ac6 6d3d
00000350: c199 b73d 6e5f 313d ac5e dfbd 54fb 08bd
00000360: 0b15 af3d 8444 5ebd c527 69bd 30b9 01bd
00000370: df84 263c 6362 5d3d b5d5 893b 21e7 e9bd
00000380: 3d71 fe3c c0da 9b3a 3ab2 adbd 9020 52bc
00000390: dcf4 86bd 930d b63d 95c5 c23d e2c9 0e3d
000003a0: 34e9 923d 0650 903c 1d8f 8bbd 8304 cfbd
000003b0: 18e3 acbd 0c53 0f3d 2651 96bb e17e a63d
000003c0: 9682 c2bd 86ae 123d 6143 4bbd cb95 92bd
000003d0: 453f 9cbc 3e9c 00bd b46d 013d 5d36 a2bd
000003e0: 083d 473d 42cd a63c 3806 633d e9db 52bd
000003f0: 27aa c33d 9889 a8bd 8056 0e3d 2e6a 0b3d
0.048875082 -0.15693864 0.13678238 0.02188456 -0.064254984 -0.04075686 0.030518342 0.18757893
-0.024227606 -0.06838729 0.14079088 0.20255162 0.014308126 -0.05191233 -0.043831866 0.13665704
0.21166265 0.081264414 -0.08023219 0.14798394 0.1473733 0.08173364 0.116355255 -0.093094185
-0.05376376 0.23085654 0.14053546 -0.03065669 -0.045512833 -0.17690778 -0.010113483 -0.0753815
0.12047591 -0.021082468 0.017956495 0.22865555 -0.09984297 -0.09132749 0.061462168 -0.0079936795
0.02098987 0.027808467 -0.14731155 0.064298876 -0.026232492 0.20877269 0.084159635 0.007752261
-0.012945102 0.14358577 0.20368715 0.047395818 -0.03244888 -0.05609429 0.27819997 0.21694812
-0.10157244 0.12767583 0.20835878 0.1257164 -0.010506803 -0.1435717 0.23715504 0.049210016
0.124902934 -0.036763445 0.063093536 -0.12577908 -0.017523322 -0.022360193 0.1405332 0.14846073
0.060229007 -0.03843496 -0.0036562076 0.057617217 0.04637281 0.112590365 0.10129459 -0.09798666
-0.07409293 -0.04262148 0.054832954 -0.058799293 0.07432375 -0.018563591 0.018199943 -0.09042375
-0.09973901 -0.047021553 0.0025296807 0.117275685 0.05063033 -0.07700109 -0.09822132 -0.08338519
0.093952335 0.06712644 -0.09280712 -0.04276659 0.08559774 0.09780164 -0.017829366 -0.010902718
0.09729207 0.09102436 0.06863265 -0.0037491461 0.026077904 0.09642301 -0.017685138 -0.021780059
0.07258139 -0.04862555 -0.05190137 -0.052224346 0.06898462 -0.09549823 0.019253412 0.005294281
0.07764054 -0.1043325 -0.04183978 0.11762506 0.035056744 -0.10195778 -0.002500154 0.006042324
0.05569773 -0.08334944 -0.007004738 0.09736085 -0.08276601 0.1057461 -0.11448951 0.07812492
-0.01172136 -0.043573953 -0.039617334 0.0056728274 0.06554004 0.038235687 -0.019122256 0.0920086
0.038857274 0.09736694 0.06213431 0.014551498 0.043607093 0.0718917 -0.0827394 0.047473732
0.079860635 -0.092421606 -0.004769489 0.0025293075 0.03685417 -0.015253983 0.09938242 -0.08695139
-0.056878086 0.081423886 -0.10248756 0.032317486 -0.10599002 0.09964557 0.016966803 0.04490147
0.05144848 0.00084825174 -0.11008047 -0.02561588 0.00035884976 0.029897971 0.030928386 0.06946664
0.032309845 0.07831498 0.06919106 -0.07435806 -0.010857137 0.04372082 0.058868676 0.028283313
-0.09467833 -0.10670495 -0.09805446 0.04155942 0.0074035036 -0.08466083 -0.011165872 -0.0043675723
0.07041211 -0.043906573 -0.067700766 -0.08967857 -0.09210495 -0.071569145 -0.08647092 0.046430208
0.06728458 -0.044274762 0.026616402 -0.007738024 0.04192787 -0.0045973063 0.046984535 -0.023344412
-0.05018101 -0.08306438 -0.11112976 0.05805049 0.08964873 0.0433039 -0.10906729 -0.03344281
0.085489355 -0.05426456 -0.056922693 -0.03167075 0.010163515 0.054048907 0.004206384 -0.114210375
0.031059856 0.0011890754 -0.0848126 -0.012825146 -0.06589672 0.08889308 0.09510342 0.0348605
0.07173386 0.017616283 -0.06814406 -0.101082824 -0.08441752 0.03499131 -0.0045873104 0.08129669
-0.094975635 0.03581097 -0.049624804 -0.07157477 -0.019073138 -0.031399004 0.03159876 -0.07920525
0.04864219 0.020361546 0.055425853 -0.051479254 0.09553938 -0.08229369 0.03475046 0.034036808

t_conv1.bias f4 [8]
00000000: 3fef 843d 51aa c5bc 56be b93e 36a9 d93d
00000010: adaa e93c de1e 5d3e da9f de3d 31e9 d33d
0.06490945 -0.024129065 0.36278027 0.106279776 0.028523767 0.21593806 0.10870333 0.10347212

t_conv2.weight f4 [8, 16, 2, 2]
00000000: 0c4d 903d 8c7d f43d cd47 e8bd 87e9 603d
00000010: 37a7 9d3d 1cd0 123d bfe0 063e f706 c7bc
00000020: d260 dd3e 060a 5c3e 1462 793d 0d4a ccbe
00000030: 0e2e 913e c179 b23e fd3d 69bc be0b 473e
00000040: 508e 1b3f fbbd c03a 8ef1 b83d c6f8 08be
00000050: a48a 193d c46e 98bd edf4 093e 0d95 ef3e
00000060: 4b5b 9e3e 9f47 003e 0e82 963d 31d4 803e
00000070: ca1c 5d3e 47e1 4ebc 6d4e 9e3d c4ca 2a3e
00000080: 237c 723e 9b4d 203f 8e0d 983d 8577 9c3e
00000090: bb69 fa3d ef45 7cbe 2b23 16bd 6eba 5b3d
000000a0: 1ec6 843e c515 2b3f 9809 053e b0eb 9b3e
000000b0: a365 a6bd 3a7f d5bc 5dc1 a6be 4e86 eb3e
000000c0: 4298 b6bc e9dd a9bd 108e cabc d9df 413e
000000d0: 9e5b 7c3e 44d2 833e fd79 b9bd 5129 043e
000000e0: fee8 cfbe 2488 98bf bfc9 a23e eace 1b3e
000000f0: bd37 da3e e933 d5bc 8565 c83e 741d e23e
00000100: dc3e 9f3d ee06 a73d 7977 09bd 2c6a 5c3e
00000110: a851 86be 0fc5 12bf 654d f93d 1a4f adbc
00000120: 10e0 6fbe ca4b 2c3e ce03 303e e433 c6be
00000130: ee91 bd3c 9f43 1abe 46f5 113e 071a 743e
00000140: c2d7 5fbe 2582 cb3d c0d7 a7be 730e 203e
00000150: 62d4 673e b423 003e 3097 253e f625 d7be
00000160: 028f d1bd 5031 95be 8e28 743d 3127 8b3e
00000170: 228e 5e3e cfd4 dabd 548a 3f3e 5386 423e
00000180: 6408 9dbc dfe7 b7be e3ef 1f3d fac2 713d
00000190: 019a 1e3e 5c95 fabc 6be9 233c 64e0 cb3d
000001a0: cd94 52bc b47c 253e 2f73 4b3c 9f4f 9f3e
000001b0: e1f7 fd3c 0b7f 443e 713f 113c dc22 613e
000001c0: 68c3 003c ef6f eebd 6e0a cbbc a4f6 0b3e
000001d0: c27c 523b ced7 4abe a51a c9bd b762 d4bd
000001e0: 0a37 05be 8cc1 04be ff75 4bbe 528d fc3d
000001f0: 361a 1cbe 2fea e8bd 0b16 13bf 8d64 b63d
00000200: 2acb 863d b02b 2b3e 60c1 49be f466 463e
00000210: 0fa2 98be 3ff3 07be cf08 9d3e 433c d83e
00000220: c82f 233e 1f0e a23d 6e3a 2e3c f395 18be
00000230: 9676 983d b521 613e 7678 b13d b0e8 8c3c
00000240: 9187 6ebe 0fde e93c 636c a8bd 281e 673e
00000250: 3432 f23d 92fd 683e fdfd a93d 5ac6 92bd
00000260: 69c4 1d3e 4b27 0f3e fe5a c03e 0445 f83c
00000270: 2a85 a7bd 78d4 043d 8a51 e2bd 3a00 133e
00000280: 10ff 283e 687f 503e 7458 4fbe 94ea 7f3e
00000290: 964e 8f3e 4b52 8d3d dbc6 cd3d 7ba9 113e
000002a0: f0a0 703e 0279 5fbe 4236 4a3e 4ff0 583e
000002b0: 904e 213e 9f77 1bbd 8384 503e 74ae 1a3e
000002c0: 8dcc debd 2c8d c0bd 7e07 843d 7bb5 b33d
000002d0: 5017 853d afdc 9b3e 5323 da3e 5b7e 4e3e
000002e0: f9df 3c3e a86d 973e 280a d7bd ded1 6c3d
000002f0: 95c0 953e 0524 c7bd e828 eb3b 4da0 62be
00000300: 5244 6a3e 2b69 483e b0b5 333d db4f 333d
00000310: 10a1 043e 4d6e 0f3e 5204 523e 795b a33c
00000320: 05aa 61be 8092 1a3d bee0 03bd f6b7 9f3d
00000330: 8686 8c3e 9e89 a13d baff c7bd 8c24 e73c
00000340: 477a 543d f419 04bf 7a71 a13d bfb8 023d
00000350: 40e5 bbbd fb62 003e 2656 4abc 7068 fc3d
00000360: 24a7 5d3e 8722 27be e8a1 0ebe 706a d4bc
00000370: 9779 d6be 6789 d8bd e59c 3fbf ce16 433e
00000380: 4131 c5bd 6ae6 69be b2ec 3f3e 0d37 d1be
00000390: 3178 163f 00a3 023e 1f59 a63a d473 df3d
000003a0: cfbe 45be d16e 063d df09 5e3d 2569 6fbd
000003b0: 18fb 153e f532 96bc 91b1 593d bfca 833e
000003c0: ce4f ac3c b479 8b3d a7e9 16bd 39ea 00bf
000003d0: 4294 6b3e facd cc3d 04cb 113e 3dad 00bd
000003e0: 7f77 93be 080e 7d3e 59ad 89bc 9ad5 e93e
000003f0: 9f90 97be 634c 0abd 2dac 3f3c 40f7 1c3e
0.070459455 0.11938009 -0.1134182 0.05491021 0.07697909 0.035843 0.13171671 -0.024295313
0.4323793 0.21488199 0.06088455 -0.39900246 0.2835545 0.34858516 -0.014235971 0.19438073
0.60764027 0.0014705056 0.09030448 -0.1337615 0.037485734 -0.07443002 0.13472338 0.46793404
0.30929026 0.12527321 0.07349025 0.2516189 0.21593013 -0.0126269525 0.07729802 0.16678911
0.23680167 0.62618417 0.0742446 0.30559936 0.12227198 -0.24636053 -0.036654633 0.05364459
0.259324 0.6683009 0.12991941 0.30453253 -0.081248544 -0.026061643 -0.325694 0.46000904
-0.022289399 -0.08294279 -0.024725944 0.18933047 0.24644324 0.25746357 -0.090564705 0.12906386
-0.40607446 -1.1916547 0.31794545 0.1521565 0.4262065 -0.02602573 0.39139953 0.44163096
0.07775661 0.081556186 -0.033561204 0.21524876 -0.26234174 -0.5733194 0.12172965 -0.021155883
-0.23425317 0.16825786 0.17188951 -0.38711464 0.023140874 -0.15064858 0.1425372 0.23838054
-0.21859649 0.099369325 -0.32781792 0.15630512 0.22639611 0.1251362 0.16170955 -0.4202115
-0.10232355 -0.29139185 0.05960899 0.27178338 0.21733907 -0.10685121 0.18705112 0.18996553
-0.01916904 -0.3591909 0.039047133 0.059023835 0.15488435 -0.030588798 0.010004382 0.099549085
-0.01285286 0.16160852 0.012417599 0.31115434 0.031001987 0.19189088 0.008865223 0.21985954
0.0078590885 -0.116424434 -0.024785247 0.13668305 0.0032117818 -0.19808885 -0.09819535 -0.10370391
-0.13009277 -0.12964457 -0.1986923 0.12331642 -0.15244374 -0.11372792 -0.5745551 0.08905897
0.06581719 0.16715884 -0.19702673 0.19375211 -0.2981114 -0.13276385 0.30670783 0.42233476
0.15936196 0.0791285 0.010634048 -0.14900951 0.074444935 0.21985514 0.08665554 0.017200798
-0.23293902 0.028548269 -0.08223798 0.22570097 0.11825982 0.2275298 0.083003975 -0.07166739
0.15406956 0.13979833 0.37569422 0.030306347 -0.08179696 0.03242919 -0.110507086 0.14355555
0.16503549 0.20361102 -0.20248586 0.24991828 0.27989644 0.06900462 0.10047694 0.14224808
0.23498893 -0.21823505 0.1974726 0.2118542 0.15752625 -0.037955876 0.20363049 0.15105611
-0.10878859 -0.094019264 0.064467415 0.08774849 0.06498587 0.30441806 0.42605075 0.20165388
0.18444814 0.2957585 -0.10499984 0.057817332 0.2924849 -0.09723667 0.0071765073 -0.22131462
0.22877625 0.19571368 0.043874443 0.043777328 0.12952065 0.1400692 0.2050946 0.019941078
-0.22037514 0.03773737 -0.032196753 0.0779876 0.27446383 0.078875765 -0.09765573 0.02821567
0.051874425 -0.516021 0.07882972 0.03191447 -0.09174585 0.12537758 -0.012349641 0.12324607
0.2164579 -0.16321765 -0.1392895 -0.02592966 -0.4188964 -0.105730824 -0.7484878 0.19051668
-0.09628535 -0.22841802 0.18742636 -0.40862313 0.5877715 0.12757492 0.0012691355 0.10910764
-0.19311069 0.032820527 0.054208633 -0.058449883 0.14646566 -0.018334845 0.053147856 0.2574062
0.021034148 0.068103224 -0.036843922 -0.50357395 0.23005775 0.100002244 0.142376 -0.031415213
-0.28802106 0.24712384 -0.016806291 0.45670778 -0.29602525 -0.033764254 0.011698765 0.15328693

t_conv2.bias f4 [16]
00000000: 2e38 48be 7905 4dbd b60d 6dbe 52ed 40be
00000010: 4efd 8d3e 6f47 703e f3ce e83d fdc9 873e
00000020: 8b98 ffbd 05dc 27be 6c2d 5dbb 6d6c 973d
00000030: 4a09 8f3e 3cc0 ccbe 3c7e 163e 5ef4 02bf
-0.19552681 -0.050054047 -0.23149762 -0.1884053 0.2773232 0.2346475 0.113675974 0.26521292
-0.12480267 -0.16392525 -0.0033748997 0.073937275 0.27936774 -0.39990413 0.14696592 -0.51154125

t_conv3.weight f4 [16, 32, 2, 2]
00000000: 05ef 933d f323 153e 65bc 32bd ff03 073e
00000010: 2dd9 463e 1fbb 233e b074 153e 007c 4e3e
00000020: 3c1d 673d 6272 32bc bcdf e33d 3dd0 24bd
00000030: ba66 173e 80df 37bd d77c 2b3c 9ddf 7e3e
00000040: bbb2 bb3d c170 203e c556 163e 60ac 413e
00000050: 900d c23c 0bbb 193e d9b2 423e 02ce d43d
00000060: 3aa0 c43c 00b9 1f3d 4e2e 4d3e ad86 513e
00000070: 0c31 5e3d 0807 c73d 70a3 ef3d 4ff8 863e
00000080: 0a00 55bc 8494 4dbb 60be 7c3d edb8 3c3d
00000090: 8d82 823d 800c c63c edd6 573e 52c9 763e
000000a0: c9c2 aa3d b65a 043e 3814 e13d e214 4c3e
000000b0: 2ae2 9b3c 74a3 243e 7499 383e 44e2 ee3d
000000c0: 87a5 8b3e 213a 953e c96d debc 5ea2 3a3d
000000d0: d4a8 53bd 255b 063d a89b afbd 3da7 05bd
000000e0: ed99 2f3e 4536 983d 2348 ed3d 1180 46bc
000000f0: 2920 9e3d 1ccb a73d 94b4 ac3d f891 1b3e
00000100: 2ead 34be 91d7 f83d 51e1 24be 55ae 433e
00000110: c010 56bc 5996 1fbe 1d79 123e 283e af3d
00000120: 8282 883d fda5 473e 73c0 ecbd d77d 893e
00000130: 7eee 49bd a5a0 693c 2dcb c6bd f002 11bd
00000140: a967 383e 73c4 2a3e 4992 8b3d 64b1 583e
00000150: c4dc 243e 1400 7b3d 95e3 c63c c47d 823e
00000160: 3b1b 623e b9ea dc3b cae9 fc3d 2883 313e
00000170: 5460 aebd b9a8 03bd 3309 41bf 56b7 d1bb
00000180: 0553 fc3d f0bf 9b3e 45ad 9c3d 0124 ab3e
00000190: ada4 9cbd 86c7 243f 0706 233d 65b7 bc3d
000001a0: fa34 383e 6444 e33d 78c0 2e3e 71fa 7c3e
000001b0: 3577 723e 34f1 d43d 60ed c4bc 80ff 883e
000001c0: 866b 0d3e 5004 353e 872b 213e 7c8d 273e
000001d0: 7b39 403e cf31 23bc bb1c 843e 5fae 6d3e
000001e0: fb90 113e fe50 903d 3c86 f23d 425d 9c3d
000001f0: 8023 033e ba42 3a3e a729 a93d 408c a13e
00000200: b5cb fabd 4b9b 233e aec4 a83d 7084 8e3e
00000210: e812 dcbc f95c 813e 643f 683e 8569 963e
00000220: 32a4 293d 6d3e dabc e664 713e 49d3 093e
00000230: 164c 183e 34e9 8c3c 315e 7c3e 131f 1a3e
00000240: babb 243c 9010 423e 6007 263d 82bf 0b3e
00000250: 6ab4 b23d c465 ae3e 0c59 853e 9422 023e
00000260: 0b9f 82be 4f57 c13e 0995 3dbd 7e79 9b3e
00000270: 9664 b43c f3ae 023e b8dd d43d 2528 983d
00000280: 8c4e cf3d 48cd 5ebe 41d4 273d 1cf0 1e3e
00000290: cd9f 86bc 90e3 493e 4cb6 4c3e 8a08 393e
000002a0: 37b5 003d 16ea a03e f5c2 0f3c 0fae 553e
000002b0: ca34 3d3b 4da3 9f3e 9fb3 063e 9d9f 4b3e
000002c0: 3405 6b3f 64e1 fc3e 020c 183f e20c fdbd
000002d0: 6364 c8bd 6dce 43bd ed51 95bd c0a5 b33c
000002e0: ca8f 3b3e dd1a 3c3b c1b1 653c d179 19be
000002f0: c988 b6bd a014 b33e f011 253d 50c2 463e
00000300: bb44 ef3e 785c c33e 0d2d 103e a40d a33e
00000310: a9db c93c 8c10 6c3e 918b 52be 8e4f 733e
00000320: 1cf1 f33a 121c cb3e 1189 a53d 5e8d 9f3e
00000330: 812a 98be f116 623d 198d 203d 6a5d 043e
00000340: 93a5 c93d 6adc 203e 4e44 4d3e 4a06 b83e
00000350: 482e 383d cd00 f03d 4f58 6c3e 6e57 6e3e
00000360: 1e82 1b3e dc0b 883e 5493 8e3e 4e9e 863e
00000370: e9f8 b0bd 0f72 8c3d 048a a2be 56c2 a9bd
00000380: fc98 b83d e9d2 9a3d d18c 063e be5e f33d
00000390: fbc8 f53c 5037 f43d 9e37 253e 28c0 0a3e
000003a0: ed00 a0bd 5460 8e3e e13d 083e 3cef 903e
000003b0: ab0e 553a 10fd 493e c09a 05be a0d6 93bd
000003c0: 6802 7b3e ef4a 753e c209 b23e 9b24 503e
000003d0: 05dd 0a3e 66c9 54bd f1f1 183e 332c 933e
000003e0: 3abd 07be 6862 283e 0750 9ebb 9095 683d
000003f0: c394 1cbd fae8 483e b63c d63d 31d3 d93e
0.07223324 0.14564495 -0.0436367 0.13185118 0.19418783 0.1598935 0.14595294 0.2016449
0.056424364 -0.010891529 0.11126658 -0.040237654 0.14785281 -0.04489088 0.010466776 0.24889989
0.091649495 0.15668012 0.14681537 0.18913412 0.023688108 0.15012757 0.19013537 0.10390855
0.024002183 0.03899479 0.20037195 0.20461531 0.054245993 0.09718138 0.11701095 0.2636132
-0.013000498 -0.003136904 0.061704993 0.046074796 0.06372557 0.024175882 0.21078081 0.24100235
0.083379336 0.12925228 0.109901845 0.19929841 0.019028742 0.16077977 0.18027288 0.116642505
0.27274725 0.2914591 -0.027151959 0.045565 -0.05167468 0.032801766 -0.08574611 -0.032630194
0.17148562 0.07432226 0.115860246 -0.012115494 0.07720978 0.08193037 0.0843288 0.15192401
-0.17644188 0.12150491 -0.16101576 0.19109471 -0.013065517 -0.15584697 0.14304014 0.08556777
0.066655174 0.19496913 -0.11560144 0.2685382 -0.04929971 0.014259492 -0.097067215 -0.035403192
0.18008293 0.16676502 0.06815011 0.21161419 0.1609984 0.06127937 0.024278441 0.25486577
0.220807 0.0067418483 0.12349279 0.17335188 -0.08514467 -0.03214333 -0.7540466 -0.006400029
0.12320522 0.30419874 0.07650236 0.33425906 -0.07648597 0.6436695 0.03980067 0.09214667
0.17988959 0.11097029 0.17065609 0.24704911 0.23678286 0.10397568 -0.02403897 0.2675743
0.13810548 0.17677426 0.1573926 0.16362566 0.18771927 -0.009960606 0.2580317 0.23211049
0.14215462 0.07046698 0.118420094 0.07634975 0.12806511 0.18189517 0.08259898 0.31552315
-0.12245885 0.15977208 0.08240639 0.27835417 -0.026864484 0.25266245 0.22680432 0.2937738
0.041416354 -0.026641095 0.23573646 0.13459505 0.14872774 0.017201044 0.24645306 0.15050916
0.010054523 0.1895163 0.040534377 0.13647273 0.087258175 0.34062016 0.260445 0.12708503
-0.25511965 0.37761924 -0.04628471 0.3036613 0.02202062 0.1276205 0.10393852 0.07429532
0.101224035 -0.21757996 0.040973905 0.15521282 -0.01643362 0.19715714 0.19991416 0.18069664
0.03142282 0.31428593 0.008774509 0.2086718 0.0028870576 0.31179276 0.13154458 0.19885106
0.91804814 0.4939071 0.5939332 -0.12355973 -0.09784772 -0.047804285 -0.07291017 0.021929622
0.1831657 0.0028702535 0.014019431 -0.14987876 -0.089128084 0.34976673 0.04030031 0.19410062
0.46732125 0.38156486 0.14079686 0.31846344 0.024640875 0.23053187 -0.20561053 0.23760816
0.0018611285 0.39669853 0.08082784 0.31162542 -0.29719928 0.05519766 0.03919706 0.1292626
0.09846034 0.15709081 0.20045587 0.35942298 0.044966012 0.11718903 0.23080562 0.2327554
0.15186355 0.26571548 0.27846777 0.26292652 -0.08641226 0.068576925 -0.31745923 -0.0828902
0.090135545 0.07559759 0.13139655 0.11883305 0.030003062 0.119246125 0.16134498 0.13549864
-0.078126766 0.27807868 0.13304855 0.2830752 0.0008127491 0.19725442 -0.13047314 -0.07218671
0.24512637 0.23954366 0.3477307 0.20326464 0.13560875 -0.05194988 0.14936043 0.2874466
-0.13255778 0.16443789 -0.0048313173 0.05678326 -0.038227808 0.19620124 0.104607984 0.4254394

t_conv3.bias f4 [32]
00000000: 9151 08bd 5fd4 bdbe 6b43 183c 11d8 c3bd
00000010: 4b7e 17bd 527b 8fbe 020f 8abd 8603 2cbd
00000020: 90ae c43e 3b71 b2bd 44f1 76bd a9a5 02be
00000030: eff4 57be 2550 89bd aa48 543d 697c 7abd
00000040: a090 98bd fa00 243d 80ee 31be d482 033f
00000050: 4f7c cebe 72c1 9fbe a8fb 41be 98ec ffbd
00000060: da2e 6fbd 9769 083c 15ea acbc 240c 9a3d
00000070: 2ebd dbbd 822e e5be 3dd1 f0bb bf13 02bf
-0.033280913 -0.3707609 0.009293417 -0.09562696 -0.036985677 -0.28023773 -0.06741144 -0.041995548
0.3841443 -0.08713003 -0.060288683 -0.12758507 -0.21089529 -0.067047395 0.05182711 -0.061153803
-0.0744946 0.040039994 -0.17376137 0.513715 -0.40329215 -0.31202275 -0.18943655 -0.124962986
-0.05839429 0.008325956 -0.021107713 0.07521847 -0.107294425 -0.44762045 -0.007349162 -0.5081138

conv_out.weight f4 [1, 32, 3, 3]
00000000: 89fa 90bb 5257 01be 9943 153d 04ea 65bc
00000010: 6007 4abd 7b37 0fbe a461 a2bd 8f0d 9fbc
00000020: 603a b23c 9b7a 89be 7610 7bbe 9ff9 bdbd
00000030: c2eb e2be b567 13be 3318 5dbe e4f9 95be
00000040: 2189 5cbe eeea cabe 47af 4cbb 3e48 0fbd
00000050: 199f 97be c5c2 3dbd ecca 163e 9122 81bd
00000060: a646 f3bc aa9b ac3d 44ac ae3d 152b 9abe
00000070: 4eb9 9ebe 3048 cebd 3247 8bbe 8a0e d3bd
00000080: 6b7b 88bd 13dd 74be e3fc f83b 348b 2b3c
00000090: 3465 66bd 46e7 52bd 0de3 b5bd b9b8 9fbd
000000a0: 38e6 453d c4b9 6dbd bfd9 4dbd 364d f8bd
000000b0: 4bac babd d9d8 5ebe f000 58be c82e 17be
000000c0: 72ab 6cbe eab1 42be 1c43 aebd 731b 8bbe
000000d0: 9cb8 d3bd d3da 1fbe 544a 063c 45f2 b5bd
000000e0: dd1f 05be 5906 113d 0c7c 5f3d 17e4 d8bc
000000f0: ea46 fbba de5e 25be 1672 1bbe 8b69 dfbd
00000100: 227b fb3b 2ed2 debd ff7e 11bd bcc3 5ebd
00000110: 1a0a 06be c4ac 913d acca 42bd a216 403a
00000120: e211 3b3e 7864 973e 0198 683e be94 9a3e
00000130: 446e 3d3e b5f6 843e 82cc 9c3e cda9 933e
00000140: d4c8 8c3e 5f2f 71bd 8800 e8bd 7d0d c2bd
00000150: 3164 46be 30f0 16be 10b0 48bc 9dba 88be
00000160: d416 62be dc99 03be 3d5f 0dbd bbe5 37bd
00000170: ba51 9bbd 895c 953c f34b ddbd 3e85 32be
00000180: 403b d9bc a404 1abe 4de0 e9bc 739f d4bd
00000190: b105 0fbe 52a5 2ebe cc9f a6bc 87b2 e9bd
000001a0: 3727 a5bd c01d c5bd 1bb3 e6bd d2e5 5ebc
000001b0: 051a 2ebe b7d4 d9bd 8168 9f3d 5336 0bbe
000001c0: 9468 84bd c4e5 1d3e 8ecf c83c e175 e73d
000001d0: 9435 293e 7595 f23c fb7e c23a fe52 7cba
000001e0: 6fae 3bbd 40b6 603c e510 1f3d e3d2 36bd
000001f0: e33d 4a3c 48fc 943b 2bd9 1a3b 1ce8 fabd
00000200: 5ae5 9dbe 513b 583e 394d c63a 2c70 94be
00000210: e7f7 4f3e d9ba 96bc 8d5b 24be b64d 42bd
00000220: 2441 02be d03a a3bd 122e bebd 862d 853b
00000230: 3f61 88bd a4ee b3bd e817 8bbd 3ba2 0cbe
00000240: 9d9c 08be 3c78 d5bd 187f b33e c69a ffbd
00000250: 4c83 63be 66c7 c53d 2ba0 90be b5de e0be
00000260: 0e01 a7bd 5f6f 37bd a879 e33c 92fa 063e
00000270: 810f 33bd 401d 733d ab62 bc3d 77a3 233e
00000280: 1681 02be b3e9 0dbd af84 d1bc 88cb 8fbe
00000290: dc38 12be be9f 32be 58ef 4dbe 3464 2fbe
000002a0: b428 a5bd fd07 8dbe 32e6 22be 364e da3e
000002b0: 1ccf d63e 9323 f03e 54ab ea3e 49ca 853e
000002c0: 10a1 ac3e 7915 e83e 0258 973e 6de3 af3e
000002d0: 8447 82be 4c6f 6ebe 88c0 c8be 6935 dabe
000002e0: 010b b3be 7b03 ccbe 52cb 8cbe d42b eabd
000002f0: ffbb e0be e715 88be 03df 32be 5e77 2b3c
00000300: 7d87 97be 283f 81be a140 aebd c084 8cbe
00000310: cddc 3dbe ef57 59be 25b6 d53c 1328 1dba
00000320: 1ac7 93be 904c 803d 889d c4bd e183 8dbe
00000330: fa98 27bc 90c6 29be 401d 56be 65ee 563f
00000340: 5649 893e 3f90 933e 7167 c33e 1d22 d0bd
00000350: 473a 01bf f020 1e3e 3518 913e 798a 3e3f
00000360: ef2b 4bbe 570a 833d 5569 7cbd aa36 71bc
00000370: ae95 f9bd eaa7 1fbe 0ebc 03be abda ef3c
00000380: 9547 043e 24a8 e1bc 6cf1 06bd dbc8 23be
00000390: d1d2 1ebc 058f 603c 5c4a 073c 3673 4cbd
000003a0: 60f1 a93d 88ee 303e 7da8 94bd e235 efbd
000003b0: 44ba 903c 5da6 c8bd 706d 8abd 4319 f93c
000003c0: 474e 29bd b87a 6e3d 9eac cfbd 3e40 763d
000003d0: c35f 97be 3f86 97bd 14a3 383e a602 7abd
000003e0: 9ec4 393c de6c 1b3e 3c48 a13b b515 75bd
000003f0: b13a 32be fd88 96be 7a36 c9bd 317a 98be
-0.0044243974 -0.12630966 0.03644142 -0.014032844 -0.04932344 -0.13986008 -0.0792878 -0.019415645
0.021756351 -0.26851353 -0.24517998 -0.09276127 -0.44320494 -0.1439503 -0.21591263 -0.29292214
-0.21536686 -0.39632362 -0.0031232403 -0.034981005 -0.2961357 -0.046328325 0.14725846 -0.06305421
-0.029696774 0.08428128 0.08528951 -0.30110994 -0.3100075 -0.100723624 -0.27202755 -0.103055075
-0.06664165 -0.23912458 0.007598506 0.0104702 -0.05624886 -0.05149009 -0.08881197 -0.07798905
0.048315257 -0.058038488 -0.050256487 -0.12124102 -0.091148935 -0.21762408 -0.21094108 -0.1476394
-0.23112276 -0.19013181 -0.08508894 -0.2716938 -0.10337946 -0.15610819 0.008196432 -0.088841
-0.13000436 0.035406444 0.05456166 -0.02647595 -0.0019170914 -0.1614947 -0.15180239 -0.109088026
0.0076745907 -0.10879932 -0.035521504 -0.054385886 -0.13089791 0.071130306 -0.047556564 0.00073275913
0.1826854 0.2956884 0.22714235 0.30191606 0.18499094 0.25969473 0.30624777 0.28840485
0.2749697 -0.058883067 -0.11328226 -0.09475229 -0.19374157 -0.14740062 -0.012249008 -0.26704875
-0.2207902 -0.12851661 -0.034514654 -0.044896822 -0.075839475 0.0182326 -0.10805502 -0.1743364
-0.02651751 -0.15040833 -0.028549338 -0.10381975 -0.13967015 -0.17055252 -0.020339869 -0.114110045
-0.0806412 -0.09624815 -0.112646304 -0.013604598 -0.17002113 -0.10636275 0.077836044 -0.13594942
-0.06465259 0.1541968 0.024513032 0.113017805 0.16524345 0.029612282 0.0014838869 -0.0009625404
-0.04582065 0.013715327 0.03883447 -0.04463471 0.0123438565 0.004546676 0.0023627977 -0.122513026
-0.30839044 0.21116377 0.0015129215 -0.2899183 0.20309411 -0.018399643 -0.16050549 -0.047437392
-0.12720162 -0.07970202 -0.09286131 0.0040642647 -0.06659173 -0.087857515 -0.06791669 -0.13733761
-0.13340993 -0.104233235 0.35057902 -0.124806926 -0.22218055 0.09657173 -0.28247198 -0.43919912
-0.08154498 -0.044783946 0.027767971 0.13181522 -0.043715958 0.059354067 0.09198507 0.15980326
-0.12744555 -0.0346467 -0.025575964 -0.2808497 -0.14279503 -0.1744375 -0.20110834 -0.17128068
-0.08064404 -0.27545157 -0.15908125 0.42637795 0.41954887 0.4690214 0.45833838 0.26130894
0.3371663 0.45328882 0.29559332 0.343532 -0.25445187 -0.23284644 -0.3920939 -0.42618874
-0.34969333 -0.39846405 -0.2749887 -0.11434141 -0.4389343 -0.2657921 -0.17467885 0.010465471
-0.29595557 -0.25243497 -0.08508421 -0.2744503 -0.1854126 -0.2122495 0.02608783 -0.0005995046
-0.2886284 0.06264603 -0.09600359 -0.27639678 -0.010229344 -0.16579652 -0.20909595 0.8395751
0.26813763 0.2882099 0.38164857 -0.101627566 -0.5047955 0.15442252 0.2833878 0.7443004
-0.19840978 0.063984565 -0.06162389 -0.014722506 -0.12186752 -0.15591398 -0.12864706 0.029279074
0.12917931 -0.027545996 -0.03294508 -0.15994589 -0.009693817 0.0137059735 0.008257475 -0.04991456
0.08297992 0.17278492 -0.07258699 -0.11680199 0.017666943 -0.09797356 -0.06759155 0.030407554
-0.041334417 0.058222502 -0.10140346 0.06011986 -0.29565248 -0.07398652 0.1803096 -0.061037682
0.011338381 0.15178248 0.004921941 -0.059835155 -0.17405201 -0.2940139 -0.09824844 -0.29780725
