conv_Autoencoder_anomaly_adam_lr0001.pt (torch_old, 40601 bytes, 13 tensors)

conv1.weight f4 [32, 1, 3, 3]
0.17148222 0.32113895 0.20537944 -0.27190366 0.39257532 -0.20700975 0.31927168 -0.21507466
0.2324074 -0.64211905 -0.10945308 0.6492479 -0.26748928 -0.4555852 0.4361542 0.4798998
-0.6260435 -0.09305873 0.20792626 0.40104493 -0.21804935 -3.160108e-05 0.5044287 -0.020287238
-0.27188957 0.42061856 0.17676571 0.10292563 0.096977994 0.2789597 0.14325196 0.071356185
0.30816385 0.16884132 0.27923724 0.073860414 0.2759945 0.39137143 -0.50675654 0.53159606
-0.30690587 -0.75492454 0.38642517 -0.39716506 -0.24840984 -0.023020145 -0.16542645 0.08282164
0.16121164 0.24312472 0.13697231 0.13111274 0.31961653 0.24005593 -0.08152863 -0.25608158
-0.1823299 0.002658144 -0.008494765 -0.23565547 0.31202972 0.21901779 -0.014623863 -0.1218195
0.27478203 -0.008925117 -0.06683886 0.55444574 0.09790647 0.24361844 0.01869795 -0.15055965
0.2655427 -0.4822632 -0.37807783 -0.24945556 0.040836077 0.0015444603 -0.5279225 0.34320632
0.33519876 0.16446188 0.16753358 0.04578689 -0.14409278 0.26940566 0.4473276 -0.32865086
-0.65956813 -0.5119437 -0.5255425 -0.40762073 0.4668116 -0.33877772 0.001980901 0.2372112
-0.5724463 -0.026522452 0.15502743 -0.31819582 -0.7566687 -0.7442051 0.20658295 -0.025925562
-0.6606485 0.71750456 0.3713449 0.175864 0.08706423 -0.43551168 -0.038449705 -0.09144805
-0.105784245 0.19054686 0.02664908 -0.34979552 -0.15561204 0.076103106 0.21384366 0.3092464
0.30781987 -0.12268387 0.053467847 0.2614818 0.24678873 0.09302376 0.20420764 -0.6931311
0.0850389 0.29172668 -0.4312928 0.081477866 0.1614682 0.10675042 0.26486555 0.15668629
0.086302064 -0.22033611 0.44182497 0.2539398 -0.012846107 0.04687644 0.12495604 -0.05989526
0.29931185 -0.18219176 0.26277614 -0.38430727 0.07963052 0.5339233 -0.63740295 -0.19605209
0.2623453 -0.14790954 0.23447667 0.10367277 0.28351936 0.32199976 0.009914312 -0.1000212
-0.012585679 0.18429674 -0.84037966 -0.5630026 -0.07574707 -0.2839063 0.20079757 0.3217326
0.25676885 0.65097344 -0.12438318 -0.027122818 0.30463326 -0.06880345 -0.69865495 0.09561799
0.17343006 -0.45288637 0.66300744 -0.14540605 -0.20425177 0.24744111 -0.29653853 -0.29658678
0.17749792 -0.23432082 -0.33075783 0.085919596 -0.1299471 0.029365536 0.005927364 0.07992258
0.1335596 0.34126264 -0.09926613 -0.07270602 0.2122486 -0.0009769497 -0.19608606 0.17161456
0.14037262 0.05234085 0.40489933 0.44970638 -0.43591815 0.07420495 0.11058128 0.04315864
0.09066288 -0.06220801 0.09796995 0.27729502 0.007245019 0.016530007 0.04362681 0.15432568
0.3944962 0.25281703 -0.5973719 0.41360483 0.41105497 -0.5026409 0.07962404 0.26481947
0.052629545 0.21311049 -0.06737398 0.0471 0.88451546 0.033575837 -0.0629863 0.62246853
0.22586884 0.09508272 0.34777847 0.034636304 -0.026884304 -0.25426322 -0.32258162 -0.24332207
-0.3896216 -0.14502929 0.039949507 -0.20895009 0.40990844 -0.13470328 -0.15458648 0.17437701
-0.0932393 0.005687711 0.15582024 -0.14332768 -0.13503471 -0.18042327 0.39259472 0.0032179055
00000000: 0999 2f3e 536c a43e fd4e 523e f536 8bbe
00000010: a2ff c83e 5dfa 53be 9477 a33e 883c 5cbe
00000020: 35fc 6d3e ea61 24bf f028 e0bd 1c35 263f
00000030: 5bf4 88be 7742 e9be 9a4f df3e 6db5 f53e
00000040: 6344 20bf 9395 bebd 9fea 543e c355 cd3e
00000050: 5448 5fbe 678b 04b8 3d22 013f 6c31 a6bc
00000060: 1c35 8bbe 515b d73e 1202 353e acca d23d
00000070: 669c c63d ced3 8e3e a4b0 123e 3123 923d
00000080: a7c7 9d3e bde4 2c3e 2ff8 8e3e 2144 973d
00000090: 274f 8d3e d661 c83e ccba 01bf ae16 083f
000000a0: c422 9dbe bc42 41bf 85d9 c53e 3859 cbbe
000000b0: 265f 7ebe be94 bcbc 8d65 29be 649e a93d
000000c0: aa14 253e b0f5 783e 7842 0c3e 6b42 063e
000000d0: c7a4 a33e 39d1 753e 7bf8 a6bd 201d 83be
000000e0: b0b4 3abe 4234 2e3b a02d 0bbc ab4f 71be
000000f0: 5cc2 9f3e 3346 603e ed98 6fbc 817c f9bd
00000100: 3bb0 8c3e a73a 12bc d0e2 88bd 28f0 0d3f
00000110: 3083 c83d 1d77 793e 712c 993c 4f2c 1abe
00000120: 36f5 873e 34eb f6be 6b93 c1be 4771 7fbe
00000130: bb43 273d 7d6f ca3a ee25 07bf bdb8 af3e
00000140: 2c9f ab3e b268 283e ec8d 2b3e 098b 3b3d
00000150: 0f8d 13be 8aef 893e 2008 e53e ed44 a8be
00000160: 75d9 28bf be0e 03bf f489 06bf aab3 d0be
00000170: ee01 ef3e 4674 adbe 01d2 013b 7ee7 723e
00000180: d78b 12bf 9d45 d9bc 83bf 1e3e 90ea a2be
00000190: 0ab5 41bf 3a84 3ebf 7b8a 533e d861 d4bc
000001a0: 4320 29bf 61ae 373f eb20 be3e b115 343e
000001b0: bb4e b23d 63fb debe 707d 1dbd 1e49 bbbd
000001c0: 69a5 d8bd b71e 433e 2c4f da3c 6618 b3be
000001d0: c358 1fbe f2db 9b3d d5f9 5a3e 8b55 9e3e
000001e0: 919a 9d3e ae41 fbbd 1a01 5b3d f1e0 853e
000001f0: 2fb6 7c3e 3e83 be3d cf1b 513e 0a71 31bf
00000200: e028 ae3d 335d 953e 69d2 dcbe dedd a63d
00000210: eb57 253e f79f da3d 759c 873e 5f72 203e
00000220: 23bf b03d ca9f 61be e236 e23e 6604 823e
00000230: 7a78 52bc 8301 403d f4e8 ff3d bb54 75bd
00000240: 673f 993e 7a90 3abe 988a 863e ecc3 c4be
00000250: 5315 a33d 33af 083f d72c 23bf e1c1 48be
00000260: 2052 863e 9975 17be a71a 703e 6452 d43d
00000270: 7329 913e 27dd a43e a36f 223c ead7 ccbd
00000280: 2a34 4ebc 49b8 3c3e 1f23 57bf f020 10bf
00000290: 4821 9bbd 2b5c 91be e19d 4d3e 23ba a43e
000002a0: 3577 833e 32a6 263f 9cbc febd ac30 debc
000002b0: e4f8 9b3e d3e8 8cbd 0ddb 32bf 5dd3 c33d
000002c0: a697 313e b9e0 e7be dbba 293f 53e5 14be
000002d0: 6027 51be 3461 7d3e e6d3 97be 39da 97be
000002e0: 04c2 353e ccf1 6fbe 1759 a9be 9df6 af3d
000002f0: da10 05be fe8f f03c 553a c23b 73ae a33d
00000300: d9c3 083e fab9 ae3e 0a4c cbbd e5e6 94bd
00000310: b257 593e fe0c 80ba c9ca 48be babb 2f3e
00000320: d7bd 0f3e 5c63 563d f74e cf3e ea3f e63e
00000330: aa30 dfbe c4f8 973d 7078 e23d 1dc7 303d
00000340: 76ad b93d d4cd 7ebd 78a4 c83d 9df9 8d3e
00000350: a067 ed3b f069 873c 07b2 323d 8d07 1e3e
00000360: 68fb c93e 3c71 813e 5ded 18bf 03c4 d33e
00000370: cc75 d23e 13ad 00bf ee11 a33d 6b96 873e
00000380: 1492 573d a339 5a3e 5ffb 89bd eeeb 403d
00000390: 9b6f 623f d186 093d f6fe 80bd 195a 1f3f
000003a0: 294a 673e bbba c23d 0510 b23e ccde 0d3d
000003b0: 793c dcbc ca2e 82be 6b29 a5be 6c29 79be
000003c0: 7b7c c7be 8f82 14be 18a2 233d 03f7 55be
000003d0: 85df d13e a8ef 09be eb4b 1ebe e38f 323e
000003e0: 3ff4 bebd fa5f ba3b 578f 1f3e 7ec4 12be
000003f0: 8a46 0abe e1c0 38be 2d02 c93e 7fe3 523b

conv1.bias f4 [32]
0.00018342373 0.08594877 -0.061498713 -0.03097954 -0.01049292 -0.031176202 0.40349144 -0.0045789187
0.023474427 0.16935574 0.2701995 -0.00999149 0.40275273 -0.10941651 0.17100768 -0.0107367495
0.024217336 -0.011370498 -0.054606244 0.10757055 0.15999843 0.12054217 -0.048572578 0.3133133
0.019664807 -0.008156935 0.3354301 0.23845136 0.3315653 0.014065967 0.19055817 0.20699309
00000000: 6f55 4039 e905 b03d 13e6 7bbd cec8 fdbc
00000010: 7fea 2bbc 3c65 ffbc 6e96 ce3e c10a 96bb
00000020: 714d c03c 976b 2d3e 9757 8a3e 59b3 23bc
00000030: 9b35 ce3e c315 e0bd a31c 2f3e 31e9 2fbc
00000040: 6f63 c63c 534b 3abc ccaa 5fbd f34d dc3d
00000050: a1d6 233e d0de f63d 0af4 46bd 9a6a a03e
00000060: 1718 a13c aaa4 05bc 7ebd ab3e 982c 743e
00000070: edc2 a93e f174 663c ae21 433e fff5 533e

conv2.weight f4 [16, 32, 3, 3]
-0.058026984 0.13282719 -0.020430246 -0.10398116 0.18342233 0.14948109 0.022638083 0.039032616
-0.045220688 -0.07961344 0.26174855 0.22922249 -0.12882134 0.16697131 0.040912464 -0.0094325645
-0.117427655 -0.1755059 0.0300118 0.10898079 -0.010552815 -0.2063995 -0.029428132 -0.06396864
-0.13686453 0.021743888 -0.26091224 -0.056591157 0.16743024 0.21021357 0.09465696 0.10326023
0.01895504 -0.06687665 -0.091295496 -0.06363902 0.21380004 -0.121959016 0.43299124 0.30741715
0.4077784 -0.089632176 -0.26601002 -0.102128364 0.17622958 -0.12915944 0.27378887 0.23957977
0.08729098 -0.029270433 0.011931803 -0.058490023 -0.17376669 -0.06560432 0.1068761 0.15173852
0.032935686 0.051365964 -0.005141731 0.1005997 0.1281174 0.15745643 0.052931044 0.045297734
0.11373067 0.08001937 0.053610604 0.10589228 0.0038297311 -0.12539746 -0.08107094 -0.06391884
0.0007698834 0.11776192 0.08112404 -0.028465476 -0.048087794 0.037949666 0.24699175 -0.0021956572
-0.17085125 -0.002180335 0.12914073 0.37494677 0.08865662 -0.0487187 0.22199336 0.3543139
-0.30482358 -0.32154882 0.022188004 0.127591 -0.10918655 0.025810659 0.22634776 -0.11871748
0.060773566 0.18611474 -0.025808755 0.19006073 0.09503892 0.40802997 -0.7849041 -0.3595689
0.40997404 -0.3917516 -0.27504537 -0.13377841 0.13447432 0.04851751 0.18341719 -0.025966194
0.07141756 -0.00479695 0.026521467 0.06393509 0.15859629 -0.23764971 0.03244076 0.2835595
-0.15052025 -0.00899937 -0.016455553 -0.2116434 -0.065446645 -0.005119109 0.07556177 0.06157238
0.20377159 -0.06721565 0.0793767 0.06154035 0.07013662 0.11515419 -0.14546992 0.10045864
0.04027145 0.16501911 0.018173745 0.20140934 -0.04262057 -0.07833163 -0.0509142 -0.23378836
-0.026033033 0.4225744 0.31781957 0.18276447 0.37305763 0.14184906 0.08877905 0.036407508
-0.25639233 -0.13919519 0.1381448 0.09806675 -0.04265186 0.12229452 0.23930062 0.015260428
-0.21618518 -0.08887731 -0.3041566 0.0025120308 0.34609747 0.017978234 0.08192232 -0.08822685
-0.13400535 0.12668437 -0.07499606 -0.09447095 0.19801354 0.12318941 0.0030285567 0.014250014
0.06953543 -0.028279485 -0.022183014 -0.05989657 0.019727405 0.03523183 -0.18713413 -0.031324282
0.03718439 -0.020812139 0.18112752 0.07205712 0.012880582 0.12211985 0.08869837 0.14456591
0.05196554 0.039654873 0.104245715 -0.027883476 0.006158638 -0.030539207 -0.16415559 0.2612335
0.22510809 0.05254176 0.16808826 0.22560684 -0.14394295 -0.3011296 -0.21762255 0.07583615
0.16966909 0.051034287 0.08655415 0.035580188 0.009814116 0.043134116 -0.000718064 -0.0028787577
0.3465442 0.029030224 0.25726512 -0.28818044 0.21722765 0.040834688 -0.011924871 -0.08300523
-0.14906785 -0.10886142 0.031694364 0.50862 -0.2409438 -0.11400216 0.074987076 -0.20192707
0.062943704 -0.27789432 0.12292361 0.13180014 0.15267554 -0.028209252 0.01842472 0.12113963
0.13173719 0.11232963 -0.06328538 0.02618442 0.03140414 0.029338166 0.04125607 0.16033451
-0.020041864 0.03187868 0.18984474 0.0156257 -0.0023815038 0.11806673 0.090186395 0.03841049
00000000: b4ad 6dbd da03 083e 555d a7bc 13f4 d4bd
00000010: 10d3 3b3e 9211 193e 8073 b93c aae0 1f3d
00000020: 5439 39bd 5f0c a3bd e803 863e 4db9 6a3e
00000030: bee9 03be 87fa 2a3e d493 273d 0b8b 1abc
00000040: e97d f0bd d2b7 33be 4edb f53c 5231 df3d
00000050: b7e5 2cbc 645a 53be 4413 f1bc fe01 83bd
00000060: 3726 0cbe 3d20 b23c 4a96 85be 21cc 67bd
00000070: d572 2b3e 3a42 573e 82db c13d 197a d33d
00000080: 9a47 9b3c a0f6 88bd 22f9 babd 2d55 82bd
00000090: 66ee 5a3e a6c5 f9bd 07b1 dd3e c865 9d3e
000000a0: 55c8 d03e 1391 b7bd 7732 88be ad28 d1bd
000000b0: 8775 343e 5f42 04be 0e2e 8c3e 6654 753e
000000c0: 9dc5 b23d 8cc8 efbc 9c7d 433c 3c93 6fbd
000000d0: e5ef 31be 8f5b 86bd dbe1 da3d 5861 1b3e
000000e0: 92e7 063d 1e65 523d f77b a8bb 3707 ce3d
000000f0: 3531 033e 423c 213e 39ce 583d 1e8a 393d
00000100: a0eb e83d 32e1 a33d cb96 5b3d 0dde d83d
00000110: 3afc 7a3b 3168 00be 8508 a6bd e1e7 82bd
00000120: 00d2 493a 292d f13d 5c24 a63d 6e30 e9bc
00000130: b5f7 44bd 1c71 1b3d 68eb 7c3e 04e5 0fbb
00000140: a1f3 2ebe f4e3 0ebb 783d 043e 06f9 bf3e
00000150: 9a91 b53d 428d 47bd 3a52 633e a268 b53e
00000160: d611 9cbe 0ca2 a4be 9ec3 b53c 37a7 023e
00000170: 339d dfbd e070 d33c b5c7 673e 2622 f3bd
00000180: b4ed 783d dd94 3e3e e26c d3bc 489f 423e
00000190: c4a3 c23d 4ee9 d03e 7aef 48bf 6a19 b8be
000001a0: 1ee8 d13e aa93 c8be bfd2 8cbe 35fd 08be
000001b0: a3b3 093e 4cba 463d b7d1 3b3e 0eb7 d4bc
000001c0: 5f43 923d bc2f 9dbb 8c43 d93c 67f0 823d
000001d0: 1167 223e 725a 73be 9ae0 043d b62e 913e
000001e0: fb21 1abe 1872 13bc cccd 86bc 0cb9 58be
000001f0: e408 86bd 33be a7bb 21c0 9a3d 5233 7c3d
00000200: 80a9 503e 5ca8 89bd 4090 a23d bc11 7c3d
00000210: caa3 8f3d f6d5 eb3d 11f6 14be 42bd cd3d
00000220: adf3 243d c5fa 283e 1be1 943c 403e 4e3e
00000230: e892 2ebd 556c a0bd 688b 50bd 3766 6fbe
00000240: 3a43 d5bc ac5b d83e 3fb9 a23e 9c26 3b3e
00000250: 6901 bf3e e140 113e cad1 b53d 0a20 153d
00000260: db45 83be 2f89 0ebe d575 0d3e 38d7 c83d
00000270: b7b3 2ebd 8d75 fa3d 390b 753e e006 7a3c
00000280: a65f 5dbe 4f05 b6bd 6aba 9bbe e2a0 243b
00000290: b033 b13e 1747 933c e4c6 a73d 47b0 b4bd
000002a0: b338 09be 8cb9 013e 8997 99bd fc79 c1bd
000002b0: 10c4 4a3e bb4a fc3d c07a 463b e478 693c
000002c0: 9768 8e3d 61aa e7bc 27b9 b5bc 1b56 75bd
000002d0: 5e9b a13c 404f 103d 17a0 3fbe e44d 00bd
000002e0: a94e 183d 387e aabc 7e79 393e af92 933d
000002f0: 1409 533c f919 fa3d 7ea7 b53d 1609 143e
00000300: d1d9 543d 266d 223d c77e d53d e36b e4bc
00000310: 66ce c93b 5c2d fabc 6718 28be 66c0 853e
00000320: bc82 663e 0736 573d 541f 2c3e 7b05 673e
00000330: c865 13be a92d 9abe 72d8 5ebe fc4f 9b3d
00000340: bcbd 2d3e 5409 513d 4d43 b13d 88bc 113d
00000350: 63cb 203c 66ad 303d 763c 3cba 8aa9 3cbb
00000360: 3e6e b13e cbd0 ed3c 41b8 833e 638c 93be
00000370: ed70 5e3e 4642 273d 8960 43bc a5fe a9bd
00000380: 3ea5 18be bcf2 debd f3d1 013d ec34 023f
00000390: f9b9 76be f779 e9bd d392 993d f8c5 4ebe
000003a0: a1e8 803d 2a48 8ebe 60bf fb3d 9ef6 063e
000003b0: fa56 1c3e 1717 e7bc 70ef 963c 0e18 f83d
000003c0: 1de6 063e 140d e63d c49b 81bd b580 d63c
000003d0: a1a1 003d 9856 f03c 20fc 283d bb2e 243e
000003e0: d62e a4bc 3893 023d a966 423e 7801 803c
000003f0: 0113 1cbb f8cc f13d a5b3 b83d 5154 1d3d

conv2.bias f4 [16]
0.010779271 -0.10368262 -0.014632338 0.15271977 -0.05429508 0.14154439 0.1655032 0.111535564
0.11717266 0.10893237 0.027974632 -0.013996616 0.093070164 0.02861619 0.013389347 0.041084893
00000000: 8a9b 303c 8e57 d4bd 79bc 6fbc 9262 1c3e
00000010: 8564 5ebd 03f1 103e ac79 293e c26c e43d
00000020: 38f8 ef3d ef17 df3d 0e2b e53c 1052 65bc
00000030: 929b be3d 806c ea3c fe5e 5b3c a248 283d

conv3.weight f4 [8, 16, 3, 3]
-0.030875122 0.04350889 -0.04617475 -0.027148155 -0.02411433 -0.07457618 -0.08413173 -0.06275367
-0.04422699 0.037047226 0.03890682 -0.098227836 -0.10205923 -0.0036223985 -0.020428665 0.044129398
0.04908633 0.04402727 -0.024236225 0.059253044 -0.013554104 0.038371347 -0.033488058 -0.0055326745
0.01950339 0.008950069 -0.05187205 0.03549284 -0.037675522 -0.030099472 -0.0027617759 -0.07149507
-0.016824339 -0.0018006553 -0.102879696 -0.036659893 -0.06506556 0.056963556 -0.024142325 0.03657005
0.015297227 -0.06695062 0.057700716 -0.0731396 0.078024514 -0.09807753 0.02804239 0.04249511
-0.08629601 0.0328457 0.023126552 -0.021172062 -0.058021206 0.006785923 0.0006703218 -0.061495997
0.019670976 -0.02816347 -0.013351272 0.048151743 0.027675632 -0.099302955 -0.11566587 0.02985132
-0.022488326 -0.015297981 -0.04536271 0.035134282 -0.029531656 -0.0027548147 -0.037025463 0.01848587
-0.096058324 -0.05418671 -0.07204573 0.04364173 -0.09998664 0.022931183 0.044485025 -0.10052431
-0.09250929 -0.069706164 0.01676586 -0.021989869 -0.025207845 -0.071329534 0.0036981013 -0.022530125
0.0443886 0.0065424005 0.035498533 -0.086319886 -0.07438047 -0.043035947 -0.07132359 -0.083896644
-0.065616064 0.0020672374 -0.026962284 0.01804936 -0.058549445 0.0028935373 -0.015300125 -0.03532363
0.049605913 0.039072283 0.062241353 -0.07619384 -0.06846277 -0.07467478 -0.037390124 -0.0941485
-0.05945887 -0.07195011 -0.009697578 -0.046547268 -0.07947071 -0.016979672 0.029288245 -0.03476565
-0.10374466 -0.08001683 -0.017521719 -0.08506717 0.045552775 -0.082611606 -0.10380083 -0.014685548
0.034110185 -0.04015389 -0.039178632 -0.041936323 -0.0077959 -0.10323174 -0.09812103 0.031096911
-0.048719585 -0.100956656 -0.02672004 0.0044785636 0.004196703 -0.038278665 -0.09212352 -0.048912324
0.028992148 -0.07207331 0.049762856 -0.06908184 0.16625093 0.16406314 -0.36985344 0.06261139
-0.039572354 0.045114644 -0.072654806 -0.08026883 -0.5010974 -0.43067223 -0.20980953 -0.12610109
-0.20435914 -0.008895943 0.06524034 0.026016776 -0.055447653 0.036622465 -0.072784215 -0.0627973
-0.019837782 0.06075143 0.08714514 -0.066842765 0.054758746 -0.047834594 0.17245166 0.09082851
-0.0286587 0.17063552 0.13157594 -0.16593358 0.029869484 0.06918238 -0.003519848 0.05474364
0.03760398 -0.034871634 -0.06411433 -0.0106951 -0.04563851 0.02662373 0.10746697 0.030668316
-0.17570253 0.14123626 -0.15513217 -0.057345375 0.062296733 0.22771996 -0.07157924 0.08912375
-0.02332973 0.084214814 0.06274756 0.13324815 0.00012935001 0.21668896 0.24480394 0.08751464
0.06873695 0.030068558 -0.010200248 -0.05833451 0.15674756 0.016828064 0.18784235 0.048936535
0.027127383 -0.009535998 -0.014009508 0.094044514 0.08737006 0.26273793 -0.090172336 -0.0161469
0.25627658 0.06041154 0.006137797 -0.08590694 -0.17036651 -0.020991364 0.12606351 -0.043060623
-0.14223617 0.13121104 0.11528278 0.059832517 0.0415425 0.0072573214 0.055348434 -0.01951357
-0.23694794 0.011329238 0.05173331 -0.0028719828 0.00032547116 -0.04425487 0.021259181 0.045139395
-0.051423047 0.019544296 -0.07291871 -0.06711128 -0.030892858 0.03455417 -0.019348409 0.049185675
00000000: d3ed fcbc 6136 323d bc21 3dbd cf65 debc
00000010: 6a8b c5bc 65bb 98bd 424d acbd ff84 80bd
00000020: 5c27 35bd d5be 173d c25c 1f3d ad2b c9bd
00000030: 6e04 d1bd c365 6dbb 045a a7bc 07c1 343d
00000040: bf0e 493d f055 343d 0c8b c6bc 52b3 723d
00000050: 0812 5ebc 462b 1d3d c62a 09bd 704b b5bb
00000060: 93c5 9f3c 4fa3 123c c977 54bd f160 113d
00000070: a651 1abd 2b93 f6bc e9fe 34bb 026c 92bd
00000080: 32d3 89bc f703 ecba 97b2 d2bd af28 16bd
00000090: 1841 85bd 9e52 693d 20c6 c5bc 7aca 153d
000000a0: 38a1 7a3c 681d 89bd 9657 6c3d 37ca 95bd
000000b0: 51cb 9f3d dfdc c8bd 27b9 e53c 5a0f 2e3d
000000c0: f6bb b0bd 3689 063d e573 bd3c 0871 adbc
000000d0: a5a7 6dbd 735c de3b 89b8 2f3a 3ae3 7bbd
000000e0: 0725 a13c 14b7 e6bc 4bbf 5abc c33a 453d
000000f0: 02b8 e23c 595f cbbd 3ae2 ecbd c18a f43c
00000100: 7039 b8bc 62a4 7abc 40ce 39bd f7e8 0f3d
00000110: 5fec f1bc 1f8a 34bb 03a8 17bd ae6f 973c
00000120: 3aba c4bd e2f2 5dbd b68c 93bd acc1 323d
00000130: ccc5 ccbd 2dda bb3c ee35 363d b0df cdbd
00000140: 8375 bdbd 1bc2 8ebd 8f58 893c 1924 b4bc
00000150: af80 cebc 3815 92bd d85b 723b 1991 b8bc
00000160: d2d0 353d a261 d63b e966 113d 7bc8 b0bd
00000170: ca54 98bd 7646 30bd 1a12 92bd 01d2 abbd
00000180: b761 86bd 7d7a 073b 02e0 dcbc 40dc 933c
00000190: 8bd1 6fbd 80a1 3d3b 60ad 7abc 83af 10bd
000001a0: 922f 4b3d 420a 203d caf0 7e3d 840b 9cbd
000001b0: 3536 8cbd 17ef 98bd 6326 19bd eed0 c0bd
000001c0: 258b 73bd 945a 93bd 97e2 1ebc 59a8 3ebd
000001d0: 8ac1 a2bd f418 8bbc e7ed ef3c 6d66 0ebd
000001e0: 1578 d4bd dddf a3bd b589 8fbc b237 aebd
000001f0: 8c95 3a3d 4630 a9bd 8895 d4bd a79b 70bc
00000200: 1fb7 0b3d 6878 24bd c679 20bd 6cc5 2bbd
00000210: c074 ffbb 2a6b d3bd aef3 c8bd f3be fe3c
00000220: 308e 47bd 5dc2 cebd fce3 dabc eac0 923b
00000230: 7f84 893b 17ca 1cbd 42ab bcbd 4a58 48bd
00000240: f180 ed3c 2c9b 93bd 23d4 4b3d c87a 8dbd
00000250: af3d 2a3e 2b00 283e 6e5d bdbe 673a 803d
00000260: 9f16 22bd 22ca 383d 0bcc 94bd fc63 a4bd
00000270: eb47 00bf 1281 dcbe 4fd8 56be a520 01be
00000280: 8643 51be 4ac0 11bc ba9c 853d 2221 d53c
00000290: 141d 63bd 7001 163d e40f 95bd df9b 80bd
000002a0: d882 a2bc 7ed6 783d 2779 b23d dce4 88bd
000002b0: b54a 603d 35ee 43bd 2b97 303e 4c04 ba3d
000002c0: a6c5 eabc 14bb 2e3e d8bb 063e 7eea 29be
000002d0: d9b0 f43c 7eaf 8d3d 40ad 66bb de3a 603d
000002e0: a206 1a3d 8fd5 0ebd 604e 83bd 803a 2fbc
000002f0: 72ef 3abd 021a da3c a517 dc3d 1f3c fb3c
00000300: 5deb 33be 3da0 103e f8da 1ebe fce2 6abd
00000310: dc2a 7f3d 6c2f 693e 2398 92bd 8386 b63d
00000320: fd1d bfbc d178 ac3d cb81 803d 3472 083e
00000330: 21a2 0739 b6e3 5d3e e2ad 7a3e e03a b33d
00000340: f5c5 8c3d 5652 f63c f11e 27bc 2bf0 6ebd
00000350: 6f82 203e 02db 893c bf59 403e ad71 483d
00000360: 3f3a de3c e03c 1cbc 2388 65bc 699a c03d
00000370: 13ef b23d 9685 863e 46ac b8bd 8146 84bc
00000380: af36 833e 1772 773d 931f c93b faef afbd
00000390: 8f74 2ebe 15f6 abbc cb16 013e 5660 30bd
000003a0: 5ca6 11be 305c 063e 6119 ec3d f112 753d
000003b0: 7828 2a3d d3ce ed3b 0ab5 623d ecda 9fbc
000003c0: 7ba2 72be 459e 393c 4fe6 533d e037 3cbb
000003d0: 00a4 aa39 9844 35bd bc27 ae3c 16e4 383d
000003e0: f9a0 52bd 5c1b a03c 6856 95bd a471 89bd
000003f0: 0513 fdbc ac88 0d3d 8e80 9ebc eb76 493d

conv3.bias f4 [8]
-0.09126351 0.099039376 0.22758195 -0.07513028 0.097835004 0.14023419 0.20194848 0.087815374
00000000: 5de8 babd 28d5 ca3d 3e0b 693e e7dd 99bd
00000010: b85d c83d 8d99 0f3e 95cb 4e3e 8cd8 b33d

t_conv1.weight f4 [8, 8, 3, 3]
-0.027540434 0.08626145 -0.10575856 -0.10686172 0.08852366 -0.029638376 -0.1070815 -0.012062851
-0.10531621 0.0864273 0.0119173005 -0.031019758 -0.0886291 0.029610157 0.0039875624 -0.074164495
0.01984602 0.011880678 0.080724634 0.04432226 -0.06127288 0.095549434 0.09514292 0.084285475
-0.042687196 0.1124739 0.0591173 -0.018947698 0.019001778 -0.00067528716 -0.065277286 -0.051707644
0.0018133752 -0.016262928 -0.06596865 0.04084463 -0.024109937 0.059051566 0.047555618 -0.09909184
0.056362856 -0.031761777 0.042160306 -0.0625872 -0.040935762 -0.11686222 -0.05562039 0.008252774
0.107733086 0.10874439 -0.021860762 0.03996221 0.10423407 0.047823563 -0.007139802 -0.0680651
0.081516825 -0.028164031 -0.017799051 -0.08419369 0.07319469 -0.0028143153 -0.07810474 0.04085237
-0.010265592 0.07729952 -0.0026160243 -0.010766007 -0.0894912 -0.005297289 0.0069386666 -0.09025634
-5.2930292e-05 -0.014061161 0.10748114 0.07776306 -0.09406604 -0.07380125 0.058504593 0.032412607
0.2286933 -0.107217096 0.139553 -0.11212619 0.5033632 0.057957567 -0.12734823 0.11008699
0.01809461 -0.15195428 0.13093805 -0.058209613 0.15789503 -0.037763875 -0.07867191 -0.01597916
-0.041409425 -0.02796342 -0.1025134 -0.1070871 -0.4676861 -0.04883153 0.32420123 0.43150166
-0.15060157 0.016367132 0.08213393 -0.08970139 -0.16030219 0.03373197 0.017799981 0.4682987
-0.07652155 -0.2231079 0.09422507 0.02287554 -0.21947007 0.18971644 0.24090901 -0.031337664
0.275418 -0.07759043 -0.120109245 0.22362264 0.12840915 -0.014096116 -0.22944692 -0.19631581
0.059370477 -0.04813638 0.2935832 0.054799583 -0.13132907 0.15684903 0.10069983 0.057266816
-0.12397453 0.04690614 0.26499748 0.41018698 -0.02863144 0.0017873734 0.02960099 0.015049105
-0.06388379 0.081712924 -0.003764516 0.17839833 -0.14521995 -0.0018240719 -0.3762038 -0.14972591
0.12231779 -0.090023205 0.026228938 -0.0074098813 0.21775953 0.33617833 0.023192298 0.116150126
0.20474088 0.10117464 0.17704591 -0.020503325 -0.14542553 0.25010446 -0.009504621 0.06955194
0.08381165 0.03368026 0.20584154 -0.0029786834 0.10317225 0.074654855 -0.115794145 0.049835086
0.017512469 0.4425213 0.10566652 0.06313656 -0.044287704 -0.006101267 0.10903221 0.3704362
0.049440816 -0.05098748 0.09096728 -0.11448504 0.005707653 0.012682295 0.027411323 -0.08453947
-0.21493694 -0.042032354 0.10959955 0.16415502 -0.111116454 0.013974352 0.051523395 -0.42460394
0.029074015 0.16301979 -0.0430236 -0.06217931 0.4127829 0.29109502 0.005347787 -0.17073697
0.2220935 0.03175212 -0.032722276 -0.014351126 0.0022200998 0.15262014 -0.17802839 0.081261605
-0.07575413 -0.102080524 0.07671367 -0.1877696 -0.018601006 0.07852783 0.0051965797 0.14493486
0.037214406 -0.06786381 -0.20356081 0.11099189 -0.10221185 -0.12794773 0.050841887 -0.09164333
-0.04496954 -0.06380199 0.024259089 0.08491391 -0.1618103 0.08753935 -0.03864461 -0.38009337
0.11599829 -0.08828157 -0.30619094 0.010425896 0.12513858 0.10672088 0.0146590695 0.020166012
0.09459228 -0.113433905 -0.21054648 0.093191326 0.128153 -0.0722772 0.1549659 -0.12137021
00000000: 7a9c e1bc d8a9 b03d f297 d8bd 51da dabd
00000010: e54b b53d 2ecc f2bc 8c4d dbbd 44a3 45bc
00000020: 06b0 d7bd cc00 b13d c840 433c 261d febc
00000030: 2c83 b5bd 0091 f23c 19aa 823b 8ee3 97bd
00000040: 1f94 a23c 2da7 423c f552 a53d 428b 353d
00000050: 45f9 7abd 6caf c33d 4bda c23d dd9d ac3d
00000060: c5d8 2ebd b758 e63d fb24 723d 3438 9bbc
00000070: 9ea9 9b3c c105 31ba 19b0 85bd 65cb 53bd
00000080: c6ae ed3a d539 85bc 921a 87bd b34c 273d
00000090: 3482 c5bc 0ee0 713d aec9 423d aaf0 cabd
000000a0: bddc 663d a318 02bd 49b0 2c3d b82d 80bd
000000b0: 42ac 27bd 7655 efbd 35d2 63bd a536 073c
000000c0: 2aa3 dc3d 61b5 de3d 5715 b3bc 6aaf 233d
000000d0: ac78 d53d a4e2 433d 00f5 e9bb b765 8bbd
000000e0: 4bf2 a63d 41b8 e6bc 51cf 91bc be6d acbd
000000f0: 19e7 953d 6070 38bb 61f5 9fbd d154 273d
00000100: 0331 28bc 364f 9e3d 9b71 2bbb e863 30bc
00000110: 2a47 b7bd e294 adbb c15d e33b 51d8 b8bd
00000120: 7801 5eb8 c960 66bc 121f dc3d 3d42 9f3d
00000130: b2a5 c0bd 1c25 97bd 83a2 6f3d 15c3 043d
00000140: 942e 6a3e a394 dbbd fbe6 0e3e 6aa2 e5bd
00000150: 69dc 003f ea64 6d3d 9367 02be 4a75 e13d
00000160: 263b 943c e799 1bbe a014 063e 346d 6ebd
00000170: 3caf 213e 4bae 1abd bd1e a1bd bae6 82bc
00000180: ee9c 29bd 8b13 e5bc 8cf2 d1bd 7b50 dbbd
00000190: 8d74 efbe 9203 48bd b4fd a53e c9ed dc3e
000001a0: 4c37 1abe 5d14 863c d535 a83d 5db5 b7bd
000001b0: 4226 24be 892a 0a3d 44d1 913c d9c4 ef3e
000001c0: 55b7 9cbd 6676 64be 13f9 c03d 7c65 bb3c
000001d0: c3bc 60be 0745 423e dab0 763e ec5b 00bd
000001e0: 9703 8d3e bbe7 9ebd d6fb f5bd 55fd 643e
000001f0: b07d 033e 65f3 66bc 22f4 6abe 0307 49be
00000200: 752e 733d a72a 45bd 8a50 963e 8775 603d
00000210: 217b 06be 089d 203e b63b ce3d 9c90 6a3d
00000220: 5ce6 fdbd a720 403d c0ad 873e 0704 d23e
00000230: 7b8c eabc 4d46 ea3a c67d f23c 8590 763c
00000240: 81d5 82bd 1b59 a73d 19b6 76bb 0dae 363e
00000250: 8ab4 14be b215 efba c99d c0be c051 19be
00000260: c081 fa3d 165e b8bd 12de d63c 97ce f2bb
00000270: 5bfc 5e3e 911f ac3e c6fd bd3c 1ee0 ed3d
00000280: 98a7 513e a634 cf3d 864b 353e 97f6 a7bc
00000290: 6eea 14be b10d 803e 45b9 1bbc 3f71 8e3d
000002a0: 71a5 ab3d 50f4 093d 20c8 523e 0436 43bb
000002b0: f94b d33d a5e4 983d 7b25 edbd e01f 4c3d
000002c0: 4f76 8f3c 2792 e23e b067 d83d be4d 813d
000002d0: 0667 35bd 23ed c7bb 484c df3d d0a9 bd3e
000002e0: 7482 4a3d 3fd8 50bd 0e4d ba3d 2277 eabd
000002f0: 4307 bb3b 67c9 4f3c b68d e03c 0823 adbd
00000300: 6e18 5cbe 1e2a 2cbd bb75 e03d 4118 283e
00000310: 0691 e3bd aef4 643c 320a 533d b065 d9be
00000320: a12c ee3c a9ee 263e 8439 30bd bbaf 7ebd
00000330: 4858 d33e 680a 953e 7d3c af3b acd5 2ebe
00000340: 7a6c 633e 830e 023d cb07 06bd fc20 6bbc
00000350: 187f 113b 7448 1c3e 134d 36be 7c6c a63d
00000360: fb24 9bbd 980f d1bd 0e1c 9d3d ad46 40be
00000370: 2361 98bc 33d3 a03d 1248 aa3b ce69 143e
00000380: 226e 183d 2efc 8abd 3f72 50be b74f e33d
00000390: 7254 d1bd bb04 03be 953f 503d 80af bbbd
000003a0: fb31 38bd 9eaa 82bd ffba c63c 58e7 ad3d
000003b0: 99b1 25be d547 b33d d049 1ebd 999b c2be
000003c0: 8390 ed3d f8cc b4bd 0fc5 9cbe 61d1 2a3c
000003d0: 5424 003e 7a90 da3d 982c 703c 3133 a53c
000003e0: 99b9 c13d 0950 e8bd 7f99 57be 18db be3d
000003f0: 8a3a 033e 1206 94bd 62af 1e3e f290 f8bd

t_conv1.bias f4 [8]
-0.19861005 0.24829261 0.22510353 0.33849874 0.30882317 0.31758082 0.31192258 0.2837964
00000000: 6f60 4bbe 6b40 7e3e 8a81 663e b54f ad3e
00000010: 121e 9e3e f499 a23e 51b4 9f3e c34d 913e

t_conv2.weight f4 [8, 16, 2, 2]
0.21142945 0.17847335 -0.089605965 0.06289299 0.07011057 0.0069827093 0.111587845 0.31360903
0.07928927 0.20597187 0.023730554 0.0010269862 -0.14161986 -0.06306489 -0.009175128 0.14773639
-0.14422007 -0.005237023 -0.00071406795 0.10677047 -0.21615055 0.08538787 0.05224693 0.20658295
-0.16493227 -0.11616057 0.02626788 0.064685956 -0.07501921 0.070555896 -0.14587846 0.104258
-0.28530678 -0.57400656 0.022500593 -0.021989392 -0.10829854 0.1223317 -0.14329542 0.12451178
0.082022935 -0.0047175772 -0.028666662 -0.2219714 -0.024847113 0.03696966 0.0071140383 -0.8533169
0.04379287 0.046563648 -0.14015718 0.047746573 -0.26776886 -0.029445892 0.08373132 -0.20360687
0.08471311 -0.117780186 0.061218046 0.009003821 -0.044949222 -0.10417584 0.061462026 0.05432616
0.054335177 0.13090397 -0.2895907 -0.15746029 0.105339006 -0.0037455081 0.09203077 0.20962374
0.060772978 0.108847424 0.16201754 -0.020832554 0.22576554 -0.19578409 0.18039592 -0.026545495
0.047128197 0.13169952 -0.008205106 0.16138065 -0.18773594 -0.053382847 0.06683067 -0.15465747
-0.14931981 -0.068624504 0.2354054 0.15422484 0.11526902 -0.007211888 0.5250278 -0.007041987
-0.018477617 -0.30761942 -0.115767874 0.19179358 0.039498404 0.085028015 -0.14839591 0.019064557
-0.07780804 -0.08489002 0.040614657 -0.22166817 0.09019074 -0.28875703 0.30151635 0.08641989
0.035144173 0.052730355 0.27741128 0.034202345 0.18383412 0.07700495 -0.035212222 0.17603248
0.044200983 0.016019281 -0.006041594 0.042260487 0.07412651 0.01004475 0.17488097 0.045870364
0.13701059 0.054942176 -0.09183629 -0.2822822 0.14152583 -0.008474371 0.20051709 0.030692987
-0.33931303 0.085351564 0.1382081 0.12756506 0.2445415 0.038762216 0.14914516 -0.008487481
0.179762 0.014953562 0.080172226 -0.028629633 -0.1683708 -0.30268037 -0.13828997 -0.05709081
-0.012556507 -0.017213687 0.083384104 -0.059034705 0.2615032 -0.005373985 0.45667833 -0.17923991
0.07172069 0.14266169 0.30903906 0.023788814 0.21292526 0.14766437 0.1842717 0.11224468
0.03422254 -0.018857498 0.18555035 -0.10611087 0.17875697 -0.07538419 0.13281627 0.047481105
-0.04427827 0.14870751 0.3318992 -0.22053242 -0.012015601 0.3068213 0.33071724 0.32100475
-0.004879845 0.120507605 0.03590933 0.104107454 0.31715125 0.0859105 0.18141194 0.053958528
0.1666333 -0.26819584 -0.29125082 0.11117018 0.09602987 -0.1324545 -0.016058924 -0.070431955
0.038885638 -0.040450703 0.1470493 -0.02638558 0.15103754 0.14211558 0.0670938 -0.03901133
0.34928453 -0.054245576 0.12792283 -0.06839804 0.08666325 0.07791325 -0.100655146 0.24103238
0.2506873 0.11797664 -0.22366466 -0.08028981 0.17660446 0.066389345 0.111239746 0.16558093
0.12953864 -0.03405739 -0.011911488 -0.2439962 0.062761545 0.0952966 -0.06993941 0.2190892
0.13994306 0.1987652 0.12597325 -0.0040235044 0.049988464 0.06701184 -0.09740207 -0.29734588
0.050530665 -0.075241245 -0.13662454 0.007823061 0.28531304 0.1845428 0.01646798 -0.07114871
0.027766477 0.1761662 0.12907173 0.118674465 0.046964876 0.045712173 0.01079778 -0.0009728793
00000000: f680 583e b8c1 363e 5583 b7bd 0ace 803d
00000010: 2196 8f3d 36cf e43b 2b88 e43d 5d91 a03e
00000020: 6a62 a23d 4aea 523e 9466 c23c f09b 863a
00000030: cc04 11be 2a28 81bd 4753 16bc 3548 173e
00000040: 6dae 13be 559b abbb 4a30 3bba 7aaa da3d
00000050: 9256 5dbe d6df ae3d e000 563d 7b8a 533e
00000060: 01e4 28be 98e5 edbd bd2f d73c 127a 843d
00000070: aca3 99bd 9c7f 903d 2a61 15be 3885 d53d
00000080: bb13 92be 18f2 12bf 2a53 b83c 1923 b4bc
00000090: a0cb ddbd 0b89 fa3d 09bc 12be 0800 ff3d
000000a0: a4fb a73d e895 9abb 59d6 eabc 784c 63be
000000b0: 2c8c cbbc 806d 173d e11c e93b fa72 5abf
000000c0: 2760 333d 86b9 3e3d 5d85 0fbe e991 433d
000000d0: 0019 89be 8338 f1bc 547b ab3d 527e 50be
000000e0: 117e ad3d bd36 f1bd c6bf 7a3d c384 133c
000000f0: ad1c 38bd 255a d5bd 9bbf 7b3d 1c85 5e3d
00000100: 908e 5e3d b10b 063e 3b45 94be 453d 21be
00000110: fabb d73d 3377 75bb a17a bc3d 9ba7 563e
00000120: 16ed 783d 66eb de3d ede7 253e 08a9 aabc
00000130: 152f 673e a07b 48be b5b9 383e f075 d9bc
00000140: 7f09 413d 3ddc 063e b56e 06bc f840 253e
00000150: da3d 40be f9a7 5abd 85de 883d 875e 1ebe
00000160: 4be7 18be 018b 8cbd 1d0e 713e 1eed 1d3e
00000170: 2a12 ec3d b451 ecbb 3968 063f 78c0 e6bb
00000180: 5f5e 97bc 4b80 9dbe b517 edbd 8965 443e
00000190: 14c9 213d 2b23 ae3d 19f5 17be 462d 9c3c
000001a0: d259 9fbd d2da adbd 8e5b 263d fbfc 62be
000001b0: ecb5 b83d f6d7 93be 5a60 9a3e e9fc b03d
000001c0: 56f3 0f3d c9fb 573d da08 8e3e c217 0c3d
000001d0: 033f 3c3e c5b4 9d3d b13a 10bd dc41 343e
000001e0: 170c 353d de3a 833c 90f8 c5bb 5519 2d3d
000001f0: a4cf 973d bc92 243c ff13 333e 90e2 3b3d
00000200: 814c 0c3e 0c0b 613d aa14 bcbd 4b87 90be
00000210: 26ec 103e 17d8 0abc 5a54 4d3e dc6f fb3c
00000220: 70ba adbe cdcc ae3d 6d86 0d3e 6aa0 023e
00000230: 1669 7a3e 21c5 1e3d 82b9 183e 130f 0bbc
00000240: 8813 383e c9ff 743c 5631 a43d b188 eabc
00000250: 6569 2cbe ecf8 9abe e39b 0dbe 0ed8 69bd
00000260: cfb9 4dbc b803 8dbc 49c5 aa3d 60ce 71bd
00000270: bfe3 853e 4118 b0bb bed1 e93e ab8a 37be
00000280: 4ce2 923d e815 123e 5e3a 9e3e c2e0 c23c
00000290: 1409 5a3e 5435 173e b8b1 3c3e 8ae0 e53d
000002a0: ef2c 0c3d 0a7b 9abc e900 3e3e a850 d9bd
000002b0: 110c 373e 0763 9abd fd00 083e 8c7b 423d
000002c0: 225d 35bd c846 183e b1ee a93e 40d3 61be
000002d0: 15dd 44bc ae17 9d3e c553 a93e bc5a a43e
000002e0: 1be7 9fbb b1cc f63d a915 133d 4a36 d53d
000002f0: a661 a23e d8f1 af3d 0dc4 393e 9e03 5d3d
00000300: eba1 2a3e f750 89be d41e 95be 31ad e33d
00000310: 4fab c43d 27a2 07be 018e 83bc a13e 90bd
00000320: 8c46 1f3d a3af 25bd 1794 163e 9226 d8bc
00000330: 96a9 1a3e bf86 113e 7968 893d 58ca 1fbd
00000340: 6cd5 b23e 9c30 5ebd 34fe 023e 4614 8cbd
00000350: 817c b13d fb90 9f3d 4924 cebd 31d1 763e
00000360: 165a 803e bd9d f13d 5908 65be fc6e a4bd
00000370: cdd7 343e 23f7 873d aad1 e33d 0c8e 293e
00000380: c7a5 043e c37f 0bbd 6728 43bc 24da 79be
00000390: 2089 803d dd2a c33d 653c 8fbd eb58 603e
000003a0: 3c4d 0f3e 1b89 4b3e 22ff 003e 9ad7 83bb
000003b0: b4c0 4c3d 813d 893d bd7a c7bd b83d 98be
000003c0: 3ef9 4e3d 1518 9abd 4ee7 0bbe 4c2c 003c
000003d0: 8d14 923e caf8 3c3e dbe7 863c 6ab6 91bd
000003e0: 8676 e33c ea64 343e 612b 043e 990b f33d
000003f0: 3e5e 403d b03c 3b3d 2ce9 303c d308 7fba

t_conv2.bias f4 [16]
0.18939203 -0.20442456 0.2584674 -0.22620526 -0.14902818 0.17328285 -0.20789863 0.033921514
0.22533737 0.2899785 -0.090227626 -0.1559532 -0.11606629 -0.11199899 0.3383725 -0.14352953
00000000: fcef 413e ac54 51be d755 843e 5aa2 67be
00000010: d89a 18be 0f71 313e 61e3 54be 49f1 0a3d
00000020: d7be 663e 1078 943e 43c9 b8bd 32b2 1fbe
00000030: 2ab4 edbd ba5f e5bd 293f ad3e 68f9 12be

t_conv3.weight f4 [16, 32, 2, 2]
0.020659836 0.050008226 0.015097083 0.019297032 -0.17234725 0.0061718086 -0.18448031 0.057118136
-0.38389465 0.06919095 -0.055155218 -0.0017568271 -0.035503965 -1.1574667 0.11325211 -0.06313437
-0.19108555 0.09452905 -0.23463024 -0.009002946 0.20812723 0.042857043 0.0762099 0.07044683
0.011645997 0.026630694 -0.09161964 -0.15624219 -0.19390173 -0.13056387 0.27680755 -0.039793763
-0.10915923 -0.11835882 0.085554644 0.054258812 -0.07833758 -0.24431339 -0.096318536 -0.35551903
-0.11291319 -0.15555799 0.28117907 0.10095472 -0.107287884 -0.087426774 0.095911786 -0.11626826
0.06564261 -0.41299787 0.10347283 -0.07789996 0.07980039 0.34522703 0.2666799 0.29686776
-0.04138347 0.16462445 0.028006628 0.12584035 -0.13692275 0.15006064 -0.14516184 0.10938828
-0.12576845 -0.19158924 0.037044168 -0.2833444 0.16487409 -0.5081784 0.00633439 -0.07428779
0.23703119 -0.5226432 0.19551447 -0.31629023 -0.02032911 -0.16897225 -0.08991624 0.050342403
-0.051918503 -0.03821926 -0.42182752 0.2917511 -0.13584681 0.08761604 -0.055600777 0.05810734
0.14561388 -0.4581408 -0.31700197 -0.20101053 -0.16171588 -0.28758198 -0.014113359 -0.21326488
-0.24608414 -0.27969447 0.025401507 -0.027864538 -0.23593372 0.09985164 -0.17922604 -0.10202103
-0.18356219 -0.0939649 -0.16377795 0.11225539 -0.31411588 0.13889362 -0.035753857 -0.05556023
-0.18972379 -0.08519778 -0.010279767 0.15086205 -0.013296361 -0.060593467 0.104225464 0.06488889
0.08093908 0.26635697 0.28825882 -0.32995862 -0.23924232 -0.20372316 0.0868229 0.030831745
-0.017836345 0.072561994 -0.00875524 0.009863368 -0.026776103 0.0480431 0.04087127 -0.018171163
0.014616312 0.15932344 -0.0053880075 -0.11251859 -0.011904414 0.339125 -0.01209504 0.10651164
-0.011670547 -0.096136965 0.103211746 -0.052193467 -0.06432891 0.09773087 -0.08406511 -0.17331782
0.02433356 -0.06658623 -0.032551356 0.23046504 0.02287459 0.011624131 -0.13297537 -0.024528567
0.0011582846 0.15993497 -0.1490125 0.14932743 -0.14499623 0.091189034 0.08490098 0.22125928
0.03706148 0.09618891 -0.01813049 0.17656983 -0.089367196 -0.07185065 0.13313912 0.2316277
-0.044513922 0.049006037 0.21993577 0.014711697 0.14783253 -0.021100901 0.054418113 -0.15227447
-0.091387354 -0.10167607 -0.06374225 0.06089667 0.022806067 0.010572995 -0.051626977 -0.111396514
-0.06320285 0.07487907 -0.07075817 0.38748205 -0.09940885 0.119041935 0.334936 0.23269254
0.10180104 0.46427247 0.10551664 0.41213116 -0.031217726 0.11765078 0.187022 -0.009816975
-0.029837858 -0.1033685 0.07212089 -0.13321431 -0.034443367 0.0015808841 -0.059375905 0.038090963
-0.015141492 0.29144138 0.05895434 0.14394207 0.01188726 0.1685137 0.10816194 0.3351406
0.05634057 0.08135225 0.15067834 0.11560199 0.04595099 -0.016870875 -0.019581754 0.07952599
0.025843691 -0.04353867 0.036614683 0.09044722 -0.090680204 -0.024846083 0.015891112 0.06645857
-0.0149619905 0.07155711 -0.09742209 0.08981093 0.044368 0.14003669 -0.068559535 0.09106404
0.19424346 -0.07846856 0.078578286 0.2436925 -8.303293e-05 0.078064404 0.09771778 0.14459468
00000000: d13e a93c 6dd5 4c3d c159 773c cf14 9e3c
00000010: cc7b 30be e23c ca3b 68e8 3cbe b5f4 693d
00000020: d78d c4be fcb3 8d3d 70ea 61bd 5645 e6ba
00000030: 9b6c 11bd de27 94bf b9f0 e73d 984c 81bd
00000040: eeab 43be 7298 c13d e942 70be 1881 13bc
00000050: 4e1f 553e de8a 2f3d f013 9c3d 6d46 903d
00000060: dace 3e3c 9d28 da3c 14a3 bbbd f4fd 1fbe
00000070: 2d8e 46be 89b2 05be b8b9 8d3e c9fe 22bd
00000080: e08e dfbd 1c66 f2bd 4637 af3d 7d3e 5e3d
00000090: 746f a0bd 4a2d 7abe a742 c5bd 9706 b6be
000000a0: 083f e7bd 984a 1fbe b4f6 8f3e 59c1 ce3d
000000b0: c0b9 dbbd cf0c b3bd 666d c43d 0e1e eebd
000000c0: a26f 863d 7574 d3be 90e9 d33d 048a 9fbd
000000d0: 636e a33d 99c1 b03e 458a 883e 0dff 973e
000000e0: b781 29bd 5093 283e 286e e53c 4bdc 003e
000000f0: 7a35 0cbe 7fa9 193e 4ea5 14be f606 e03d
00000100: 72c9 00be f82f 44be a0bb 173d 8412 91be
00000110: c1d4 283e fb17 02bf b790 cf3b 3224 98bd
00000120: 4eb8 723e f2cb 05bf f234 483e cbf0 a1be
00000130: 3c89 a6bc 1007 2dbe 0126 b8bd d633 4e3d
00000140: 7fa8 54bd cc8b 1cbd c7f9 d7be 6660 953e
00000150: 6d1b 0bbe 0a70 b33d a4bd 63bd f601 6e3d
00000160: ce1b 153e 6e91 eabe 154e a2be b4d5 4dbe
00000170: d998 25be f23d 93be b83b 67bc 1c62 5abe
00000180: 7bfd 7bbe 1d34 8fbe d216 d03c 2c44 e4bc
00000190: 9c98 71be 047f cc3d 0887 37be 67f0 d0bd
000001a0: baf7 3bbe ab70 c0bd 68b5 27be 27e6 e53d
000001b0: ccd3 a0be 213a 0e3e a372 12bd 2093 63bd
000001c0: f446 42be 2c7c aebd 786c 28bc 957b 1a3e
000001d0: fbd8 59bc db30 78bd 2974 d53d 77e4 843d
000001e0: 63c3 a53d f15f 883e a996 933e 56f0 a8be
000001f0: f0fb 74be ce9c 50be 34d0 b13d db92 fc3c
00000200: 871d 92bc 629b 943d 2372 0fbc f799 213c
00000210: 8f59 dbbc d7c8 443d a268 273d b1db 94bc
00000220: 4279 6f3c af25 233e e28d b0bb 2670 e6bd
00000230: bb0a 43bc cba1 ad3e 462a 46bc c622 da3d
00000240: d235 3fbc 75e3 c4bd ae60 d33d d1c8 55bd
00000250: e0be 83bd 1f27 c83d 542a acbd 3a7a 31be
00000260: 2d57 c73c 5d5e 88bd 9254 05bd 07ff 6b3e
00000270: 7e63 bb3c 2473 3e3c b22a 08be 22f0 c8bc
00000280: 95d1 973a fec5 233e bc96 18be 4ae9 183e
00000290: e479 14be 51c1 ba3d 91e0 ad3d cb91 623e
000002a0: c7cd 173d b1fe c43d 6586 94bc b9ce 343e
000002b0: 2606 b7bd 6f26 93bd 9f55 083e d02f 6d3e
000002c0: 3b54 36bd 8eba 483d d836 613e 5409 713c
000002d0: 6961 173e ccdb acbc 87e5 5e3d d7ed 1bbe
000002e0: 4b29 bbbd 8b3b d0bd 4c8b 82bd c96e 793d
000002f0: cad3 ba3c 5b3a 2d3c cf76 53bd db23 e4bd
00000300: 7f70 81bd 335a 993d a9e9 90bd 0c64 c63e
00000310: de96 cbbd 42cc f33d bb7c ab3e f446 6e3e
00000320: 107d d03d 1fb5 ed3e 1c19 d83d db02 d33e
00000330: 51bc ffbc e4f2 f03d b282 3f3e 61d7 20bc
00000340: 866e f4bc ddb2 d3bd 1eb4 933d 5569 08be
00000350: 7d14 0dbd ab35 cf3a 2634 73bd 4505 1c3d
00000360: 0514 78bc ce37 953e 1b7a 713d 8d65 133e
00000370: c8c2 423c db8e 2c3e 0284 dd3d 8c97 ab3e
00000380: 5fc5 663d 029c a63d 6c4b 1a3e bcc0 ec3d
00000390: 1b37 3c3d ca34 8abc ea69 a0bc 86de a23d
000003a0: 26b6 d33c 9b55 32bd 47f9 153d 643c b93d
000003b0: 8bb6 b9bd 038a cbbc 142e 823c 6e1b 883d
000003c0: 2323 75bc 898c 923d 3c85 c7bd cbee b73d
000003d0: 38bb 353d c765 0f3e f168 8cbd c97f ba3d
000003e0: c2e7 463e 20b4 a0bd a7ed a03d 878a 793e
000003f0: f721 aeb8 3be0 9f3d 4220 c83d a110 143e

t_conv3.bias f4 [32]
-0.0018373674 0.051644504 0.044307694 0.036012918 0.026880944 0.07974436 -0.041476976 0.08847334
-0.02415832 -0.030597176 -0.11760015 -0.12154623 -0.09884386 0.4115063 -0.0027135024 0.030956475
-0.10927125 0.0063823317 -0.24052587 -0.024851777 0.06079475 -0.032597482 -0.08046739 -0.32191095
-0.23130955 0.029184196 -0.14255938 -0.14202584 -0.17038397 0.08640395 0.19310941 -0.075504884
00000000: d2d3 f0ba 3089 533d fc7b 353d 4882 133d
00000010: 6d35 dc3c 0351 a33d c3e3 29bd 8331 b53d
00000020: abe7 c5bc eea6 fabc 59d8 f0bd 3bed f8bd
00000030: a66e cabd f4b0 d23e 04d5 31bb 6f98 fd3c
00000040: 9bc9 dfbd e122 d13b 6a4c 76be f495 cbbc
00000050: ea03 793d f084 05bd 16cc a4bd 83d1 a4be
00000060: 69dc 6cbe b213 ef3c 16fb 11be 396f 11be
00000070: 2379 2ebe 8ef4 b03d 79be 453e 4ea2 9abd

conv_out.weight f4 [1, 32, 3, 3]
0.04264868 0.07577774 0.021952404 -0.13413025 -0.09438014 -0.014755897 -0.072468236 0.03747739
-0.02404631 -0.03628935 0.07074276 -0.038302284 -0.076999195 -0.010633051 -0.07507778 -0.03934672
-0.0865092 0.030387344 0.07767679 -0.044400997 0.08693289 0.03803253 -0.06952907 -0.023288125
-0.13551994 -0.10001954 -0.07189417 0.06666812 -0.00040748582 -0.17236051 0.015147048 -0.10645663
0.11076805 -0.015319076 -0.13863349 -0.05932023 0.03892896 -0.14183651 -0.130328 -0.020378431
-0.09967068 -0.092953645 0.09001673 0.064119294 -0.020401515 0.02555887 -0.02964772 0.014794581
-0.008751628 -0.08141155 -0.03307616 -0.0050324397 -0.08912047 -0.12300975 -0.103276625 -0.09854379
-0.012772326 -0.055980265 -0.0075234384 -0.11320112 -0.14347057 -0.015856579 0.072487704 0.076769784
-0.12869833 0.06703455 -0.043984864 -0.1231391 -0.09181037 0.009370426 0.06111674 0.10545915
-0.12622042 0.07767422 -0.035342995 -0.12096718 -0.08314809 -0.042272527 -0.025746964 -0.12873682
0.0118127 -0.19490595 0.15236408 0.011062426 -0.028989213 0.1936193 -0.07538896 -0.17342447
-0.101991534 0.065919064 -0.26177934 0.07242376 -0.088482 -0.3550051 0.15044577 -0.09079749
0.010285693 0.16633648 0.059793662 -0.35123545 -0.12204899 -0.054941583 -0.36008048 -0.09337078
-0.0988718 0.03540463 -0.14755765 0.0060497294 -0.05934095 -0.21593651 -0.13972071 -0.057437647
-0.26340598 -0.11710215 -0.021928035 -0.0038128968 0.05859807 0.46680546 0.37554777 0.20845877
0.46351385 0.34146985 0.1590066 0.49505058 0.47672904 0.33480382 -0.009346905 -0.088272765
0.07505433 0.067173846 0.0052824193 -0.14298175 -0.058251422 0.027638564 -0.007151906 -0.07996231
-0.0052188947 0.004251298 0.029424386 0.09000395 -0.12917374 -0.08343636 -0.15077883 -0.088145636
-0.3181603 -0.12083779 -0.12728046 -0.17773846 0.06719915 -0.2088459 -0.1308485 -0.030224485
-0.13865504 -0.26791105 -0.007780356 -0.16474476 -0.12899874 0.008897721 0.0054703946 -0.2598959
0.043911193 -0.03352702 -0.12668824 -0.35002762 0.016659262 -0.42777786 -0.37561396 -0.07982687
-0.3624991 -0.2896287 0.0639942 -0.24587157 -0.21925421 -0.09683133 -0.22688363 -0.01432436
0.012830312 -0.16380312 0.08637316 0.07597394 -0.047583513 -0.072720565 0.047541734 -0.01417875
-0.027201038 -0.11982982 0.139573 -0.043858957 0.017036416 0.0128315715 -0.0071293884 -0.11785894
0.010189163 0.01879271 -0.032556366 -0.01015553 -0.026151843 -0.05665546 -0.023974128 -0.010229636
-0.06688304 -0.1885198 -0.21882398 -0.082824335 -0.25059187 -0.23918946 -0.084656045 -0.21267806
0.10827399 -0.29564714 -0.07377259 0.44853824 -0.4060406 -0.2479772 0.04404504 -0.41860133
-0.1681015 -0.12628159 -0.3343426 -0.13209486 0.10265703 -0.30281618 -0.1586037 -0.123929024
-0.3085479 -0.011640632 -0.016590565 -0.07655757 -0.09805381 -0.07705781 -0.0065387986 -0.0570849
-0.037633017 -0.021609869 -0.031662483 -0.005800194 -0.21422674 -0.13577092 -0.2777054 -0.2345458
-0.061283596 -0.21575539 -0.21053253 0.008348332 -0.035260256 -0.17434347 -0.10099933 -0.1583408
-0.23830633 -0.19666983 -0.1579915 -0.13490811 0.033321068 -0.115616634 -0.15532237 -0.025215646
00000000: 62b0 2e3d 5c31 9b3d 87d5 b33c 7159 09be
00000010: 604a c1bd b8c2 71bc 3a6a 94bd e481 193d
00000020: c4fc c4bc 24a4 14bd 95e1 903d dbe2 1cbd
00000030: c1b1 9dbd 4036 2ebc 61c2 99bd 072a 21bd
00000040: bc2b b1bd e1ee f83c 0215 9f3d d2dd 35bd
00000050: df09 b23d 00c8 1b3d 4265 8ebd bdc6 bebc
00000060: bdc5 0abe 0bd7 ccbd 403d 93bd 4c89 883d
00000070: d2a3 d5b9 467f 30be 532b 783c ef05 dabd
00000080: 5cda e23d ddfc 7abc f0f5 0dbe c5f9 72bd
00000090: f973 1f3d 973d 11be b474 05be abf0 a6bc
000000a0: 2420 ccbd 7b5e bebd b15a b83d fa50 833d
000000b0: 1421 a7bc d660 d13c c6df f2bc f864 723c
000000c0: fd62 0fbc 19bb a6bd de7a 07bd 2ae7 a4bb
000000d0: cb84 b6bd 89ec fbbd b282 d3bd 54d1 c9bd
000000e0: 0543 51bc 904b 65bd 2d87 f6bb fdd5 e7bd
000000f0: f3e9 12be a8e5 81bc 6f74 943d 7a39 9d3d
00000100: 7fc9 03be 6949 893d 7929 34bd 5a30 fcbd
00000110: 1307 bcbd 6a86 193c 8c55 7a3d f8fa d73d
00000120: ed3f 01be a913 9f3d d1c3 10bd a4bd f7bd
00000130: 8c49 aabd f525 2dbd 4ceb d2bc 96d3 03be
00000140: 0e8a 413c 6d95 47be 5405 1c3e 2d3f 353c
00000150: c97a edbc 2344 463e 8765 9abd 2f96 31be
00000160: f0e0 d0bd 9300 873d f107 86be e952 943d
00000170: 0d36 b5bd 3ac3 b5be 750e 1a3e 09f4 b9bd
00000180: 5385 283c 1c54 2a3e 33ea 743d 22d5 b3be
00000190: d2f4 f9bd 6d0a 61bd 785c b8be 2e39 bfbd
000001a0: 4c7d cabd 7204 113d 5a19 17be cf3c c63b
000001b0: 7f0f 73bd 761e 5dbe f212 0fbe bd43 6bbd
000001c0: 26dd 86be 41d3 efbd 6ca2 b3bc cbe1 79bb
000001d0: 8804 703d 2001 ef3e cc47 c03e 3776 553e
000001e0: b051 ed3e 23d5 ae3e a0d2 223e 4577 fd3e
000001f0: d415 f43e 686b ab3e c323 19bc 5ac8 b4bd
00000200: 16b6 993d 7192 893d 2518 ad3b cf69 12be
00000210: 0b99 6ebd 456a e23c 895a eabb 48c3 a3bd
00000220: 4303 abbb 794e 8b3b 690b f13c fe53 b83d
00000230: 1f46 04be afe0 aabd c465 1abe b385 b4bd
00000240: e8e5 a2be ce79 f7bd cf55 02be 1201 36be
00000250: b59f 893d b3db 55be 26fd 05be 5799 f7bc
00000260: 96fb 0dbe a32b 89be 5bf2 febb dab2 28be
00000270: 3f18 04be bfc7 113c ff40 b33b 1311 85be
00000280: 39dc 333d a153 09bd 90ba 01be d236 b3be
00000290: 0179 883c b305 dbbe 7950 c0be 457c a3bd
000002a0: 7b99 b9be 374a 94be 640f 833d c2c5 7bbe
000002b0: 2d84 60be 814f c6bd 2f54 68be b8b0 6abc
000002c0: 3b36 523c 01bc 27be 69e4 b03d 3a98 9b3d
000002d0: eee6 42bd 85ee 94bd 1fbb 423d fd4d 68bc
000002e0: b6d4 debc 5669 f5bd 39ec 0e3e 73a5 33bd
000002f0: f48f 8b3c 833b 523c a59d e9bb 0760 f1bd
00000300: 72f0 263c 2bf3 993c d359 05bd 6163 26bc
00000310: 643c d6bc 8e0f 68bd 6465 c4bc 349a 27bc
00000320: faf9 88bd 560b 41be 6513 60be ce9f a9bd
00000330: 944d 80be 15ee 74be 2660 adbd 47c8 59be
00000340: c1be dd3d 105f 97be 1516 97bd cea6 e53e
00000350: 8ee4 cfbe bced 7dbe 9268 343d ea52 d6be
00000360: cd22 2cbe f64f 01be f42e abbe e043 07be
00000370: d93d d23d b90a 9bbe 0269 22be 80ce fdbd
00000380: fef9 9dbe 59b8 3ebc f0e8 87bc 37ca 9cbd
00000390: 70d0 c8bd 7cd0 9dbd 6b43 d6bb dbd1 69bd
000003a0: 1425 1abd 2e07 b1bc 85b0 01bd 8e0f bebb
000003b0: 415e 5bbe 8807 0bbe 672f 8ebe c62c 70be
000003c0: 8204 7bbd fbee 5cbe d795 57be 71c7 083c
000003d0: 0f6d 10bd 1887 32be bdd8 cebd 1724 22be
000003e0: 9306 74be d163 49be 86c8 21be 5a25 0abe
000003f0: ac7b 083d 6ac8 ecbd d40c 1fbe 0b91 cebc
